Bipedal/policy_vpg_mode2_300.pkl (torch_old, 397037 bytes, 6 tensors)

fc1.weight f4 [300, 24]
0	0xbe18be54	-0.14916354
1	0xbd4e08e0	-0.050301433
2	0xbdd701c5	-0.104983844
3	0x3e2e963a	0.17049494
4	0x3e0bb9fc	0.13645166
5	0xbe006c5a	-0.12541333
6	0x3e7b8117	0.24560963
7	0x3e258233	0.16162948
8	0xbdcf8bbd	-0.10134075
9	0xbe07acc2	-0.13249496
10	0xbe1259cb	-0.14292066
11	0xbdd2208b	-0.10260113
12	0xbe4225ab	-0.18959682
13	0x3e0038ef	0.12521718
14	0x3db9d2c5	0.09073404
15	0xbaea0448	-0.0017854059
16	0x3c161efa	0.009162659
17	0x3ccea074	0.025222994
18	0x3e2088e8	0.15677226
19	0x3e288833	0.16458206
20	0x3e004784	0.12527281
21	0x3e596f68	0.21233904
22	0xbd0486b3	-0.03235502
23	0xbe155d49	-0.14586367
24	0x3da9d3c9	0.08292348
25	0x3e7c57f5	0.24642928
26	0x3dcc4de0	0.09975791
27	0x3de41683	0.11137106
28	0xbdd30a16	-0.10304658
29	0xbe06c8a8	-0.13162482
30	0xbd20b4e9	-0.03923503
31	0xbe103c7d	-0.14085574
32	0x3e167981	0.14694788
33	0xbdae7bc6	-0.08519702
34	0x3de6a144	0.11261228
35	0xbe0baa42	-0.13639167
36	0xbe306f0d	-0.17229863
37	0xbe492106	-0.19641504
38	0xbe38c26b	-0.18042915
39	0x3dce086d	0.10060201
40	0xbdba2988	-0.09089953
41	0x3e3de66e	0.18544933
42	0x3df59a8e	0.119923696
43	0x3cd9dac5	0.026593575
44	0x3ce2d9f5	0.02769182
45	0x3d79e2ac	0.061007187
46	0x3c196f36	0.009364894
47	0x3cb75c48	0.02238287
48	0x3da4d282	0.08047964
49	0x3d909959	0.07060499
50	0xbdecb15f	-0.11557268
51	0x3e36592b	0.17807452
52	0x3debdf22	0.115171686
53	0xbd4e1dc8	-0.05032137
54	0xbe1bcedc	-0.1521563
55	0xbdd91b5d	-0.10600922
56	0x3c167c7c	0.009184953
57	0x3d97a2ce	0.074040994
58	0x3d9d07d8	0.07667512
59	0x3da4bc2d	0.08043704
60	0x3e39130b	0.1807367
61	0x3def514e	0.116854295
62	0xbe310449	-0.17286791
63	0xbd60eb5b	-0.054911952
64	0xbe3ce5b3	-0.18446998
65	0x3ce6f919	0.02819495
66	0xbe2ba5f4	-0.16762525
67	0x3e438c1c	0.19096416
68	0xbca51bb9	-0.02015482
69	0xbe310517	-0.17287098
70	0xbe5c35e4	-0.21504933
71	0xbe1fdd4c	-0.15611762
72	0xbe2db87d	-0.16964908
73	0x3e445064	0.19171292
74	0x3bb49323	0.005510704
75	0x3d4c30ef	0.049851354
76	0x3dc66f14	0.09689155
77	0xbd70c831	-0.058784667
78	0x3e2c5f02	0.16833118
79	0x3c55d8ee	0.013052208
80	0x3e05fdd0	0.13085103
81	0x3adf932b	0.0017057409
82	0x3c567bcc	0.013091039
83	0x3e162949	0.14664187
84	0xbc33cccc	-0.01097412
85	0xbe269107	-0.16266261
86	0xbdb03ce4	-0.08605364
87	0xbda50b5a	-0.08058806
88	0x3e3cd996	0.18442377
89	0x3e11b327	0.14228497
90	0xbe0c7dcf	-0.13719867
91	0x3d572146	0.052521966
92	0xbdef3e77	-0.11681836
93	0xbd5a386f	-0.053276476
94	0xbe0ba462	-0.13636926
95	0xbdf62076	-0.1201791
96	0x3d8cc267	0.06873017
97	0x3e11a237	0.14222036
98	0xbc424207	-0.011856562
99	0xbdbd4f54	-0.09243646
100	0x3e835b51	0.25655606
101	0x3e036ff0	0.1283567
102	0xbdd93683	-0.106061004
103	0x3e180b6f	0.14848112
104	0xbd216323	-0.039401185
105	0xbcdd7303	-0.02703238
106	0xbe222178	-0.1583308
107	0x3e3ab20d	0.18231983
108	0x3e2aaf36	0.166684
109	0xbd34c641	-0.044134382
110	0x3e3c4782	0.18386653
111	0x3dee4934	0.11635056
112	0xbcc2d018	-0.023780867
113	0xbdd8ce70	-0.1058625
114	0xbdde9f69	-0.10870249
115	0x3e24711d	0.16058774
116	0xbb9c963a	-0.0047786506
117	0x3da4a467	0.0803917
118	0xbe1e2858	-0.15445077
119	0x3e0549fd	0.13016506
120	0x3e2510ab	0.1611964
121	0x3df1d548	0.11808258
122	0xbd49c71f	-0.049262162
123	0xbe40ab0b	-0.18815248
124	0xbe6d4441	-0.23170568
125	0xbd23ab0c	-0.039958045
126	0xbe119671	-0.14217545
127	0x3d72949a	0.05922375
128	0xbe05b6c1	-0.13057996
129	0xbd44ecdc	-0.04807745
130	0x3e519015	0.20465119
131	0xbd88e509	-0.0668431
132	0xbd5d4f1f	-0.054030534
133	0xbc53c9b5	-0.012926509
134	0xbdf291f0	-0.118442416
135	0x3e2fe1c8	0.17175972
136	0xbb655ca7	-0.0034997852
137	0x3e0a8647	0.13527785
138	0xbd8fa1c6	-0.07013278
139	0xbcae5b9c	-0.021283917
140	0xbd9651b2	-0.07339801
141	0xbe18fdb7	-0.14940535
142	0x3d806afe	0.06270407
143	0x3d2de197	0.042451467
144	0xbdb1ce77	-0.08681958
145	0xbdeaa6c8	-0.11457592
146	0x3d2140d5	0.03936847
147	0xbc815f29	-0.015792446
148	0x3e86bca1	0.26315787
149	0xbd3d1df7	-0.046171155
150	0xbe7b135e	-0.24519107
151	0xbc29a607	-0.010354525
152	0xbcf36126	-0.02970941
153	0x3de6cd2e	0.11269604
154	0xbd90f022	-0.07077052
155	0x3dba4034	0.09094277
156	0xbe346612	-0.17617062
157	0x3d483d3c	0.048886523
158	0x3d2b9700	0.04189205
159	0xbe328494	-0.17433387
160	0x3cdaf2cf	0.026727108
161	0xbe01ff76	-0.12695107
162	0xbd29c8aa	-0.041451134
163	0x3d59f5e9	0.053213034
164	0x3e251561	0.16121437
165	0x3e38a151	0.18030287
166	0x3ddfc281	0.109257706
167	0xbdfb3ac9	-0.12267072
168	0xbc4a736f	-0.012356623
169	0x3ddb50ca	0.10708769
170	0xbb7842b1	-0.0037881548
171	0xbe6cb407	-0.2311555
172	0x3db31632	0.08744468
173	0xbe3aa023	-0.1822515
174	0xbe68bbc9	-0.22727884
175	0xbe468d69	-0.19389881
176	0xbda0de9d	-0.0785496
177	0x3e3f2dfd	0.18669887
178	0x3e1bd1d6	0.15216765
179	0xbd2285ec	-0.0396785
180	0x3ca5e20a	0.020249385
181	0x3e6ae078	0.2293719
182	0xbe3faee1	-0.18719055
183	0xbe0c1e67	-0.13683473
184	0x3dd06e00	0.10177231
185	0x3d2417fa	0.04006193
186	0x3e20c064	0.15698391
187	0x3dba7936	0.091051504
188	0x3e4ceb3b	0.20011608
189	0x3db9d366	0.09073524
190	0x3dfdbd04	0.123895675
191	0xbe19f09f	-0.15033196
192	0x3d8fcea4	0.070218354
193	0x3da3d439	0.07999463
194	0xbd9dc865	-0.07704238
195	0x3e302282	0.17200664
196	0x3e315bd0	0.1732018
197	0x3c8827db	0.016620567
198	0xbe23d94e	-0.16000864
199	0x3e3574dc	0.1772036
200	0xbbf0f5a1	-0.0073535
201	0x3d0a6a61	0.033792857
202	0x3d0f7cf2	0.035031267
203	0x3dedeecc	0.116178125
204	0x3e0c1330	0.13679194
205	0x3d901108	0.070344985
206	0x3e0b4ff3	0.13604717
207	0x3e29d096	0.16583475
208	0x3ce31b0d	0.02772286
209	0xbd6d5b65	-0.05794849
210	0x3e034621	0.12819721
211	0x3db5569b	0.08854409
212	0x3dc7a08b	0.09747418
213	0xbda9f8dd	-0.0829942
214	0xbdb3c9ba	-0.08778711
215	0x3e051f5a	0.13000241
216	0xbe2120f8	-0.15735233
217	0xbe937b9e	-0.2880525
218	0x3c9e1006	0.01929475
219	0x3d338e5a	0.04383693
220	0xbdc82b4b	-0.097738825
221	0x3c30afb0	0.010784075
222	0x3e8557f5	0.26043668
223	0xbdae8368	-0.085211575
224	0xbc27c961	-0.010240884
225	0xbdc7ca5f	-0.09755396
226	0x3dd607f9	0.104507394
227	0xbc921386	-0.017831575
228	0xbcfaacad	-0.030599916
229	0x3de9e64c	0.11420879
230	0xbdccc22b	-0.09997972
231	0x3e5e0fdd	0.21685739
232	0x3d3004c7	0.042973306
233	0x3b128c9c	0.0022361642
234	0x3c4556d7	0.01204463
235	0x3e23ac4f	0.159837
236	0x3d865f2e	0.06561123
237	0x3e022e9d	0.12713094
238	0xbc72601b	-0.014793421
239	0x3d2f683a	0.042824008
240	0xbc65672b	-0.014001648
241	0xbe1aca0b	-0.15116136
242	0x3dcea1a5	0.10089425
243	0x3dc706ac	0.097180694
244	0xbcbff3da	-0.023431707
245	0xbce4360f	-0.027857808
246	0x3e705047	0.23468123
247	0x3d9d8eb4	0.07693234
248	0x3d6ccf8b	0.057815116
249	0xbe2bf282	-0.16791728
250	0xbe147b68	-0.14500201
251	0xbd974011	-0.073852666
252	0xbd4feb8a	-0.050761737
253	0xbd5367a4	-0.05161251
254	0x3d0e7920	0.034783483
255	0x3e4178a6	0.1889368

fc1.bias f4 [300]
0	0x3da00a01	0.07814408
1	0xbc00f82f	-0.007871672
2	0xbcb29db8	-0.021803722
3	0x3c968b4d	0.01837697
4	0x3deb0f19	0.11477489
5	0x3dcb7489	0.09934337
6	0xbb01817a	-0.0019761012
7	0xbe2db608	-0.1696397
8	0x3d8d4b7f	0.06899165
9	0xbbffb52b	-0.0078035793
10	0x3d177278	0.0369744
11	0xbda380ab	-0.07983526
12	0xbe0e9c54	-0.13926822
13	0xbd8031e0	-0.06259513
14	0xbe3ae876	-0.1825274
15	0x3e565ff4	0.2093504
16	0x3cee00c7	0.029053105
17	0xbdf075ae	-0.117411956
18	0xbcbb5ab6	-0.022870403
19	0x3c01c6a4	0.007920895
20	0x3e136bea	0.14396635
21	0xbdd5cd67	-0.10439568
22	0x3e223c49	0.1584331
23	0x3e6df53e	0.23238084
24	0xbdc17113	-0.09445395
25	0x3e20945d	0.15681596
26	0x3c84ad35	0.016195873
27	0x3d9eca12	0.077533856
28	0x3d7959d4	0.060876682
29	0x3d6eff13	0.058348726
30	0x3cdddc15	0.027082482
31	0xbca44617	-0.020052953
32	0xbd918307	-0.071050696
33	0xbd34a29d	-0.044100393
34	0x3c91364d	0.017726088
35	0xbcd4d69a	-0.025981236
36	0xbd951f87	-0.07281404
37	0x3e176898	0.14785993
38	0xbdc0f150	-0.09421027
39	0xbe3143f0	-0.17311072
40	0xbdefd361	-0.11710239
41	0xbe541038	-0.20709312
42	0x3d4a6487	0.049412277
43	0x3e478066	0.19482574
44	0xbdfc73f2	-0.12326802
45	0x3c917ff5	0.01776121
46	0x3d7ed5e1	0.06221569
47	0x3e39af61	0.18133308
48	0xbe1a27d5	-0.15054257
49	0x3dcd3cef	0.10021388
50	0xbcb2627d	-0.021775478
51	0xbdf455c7	-0.11930423
52	0xbe14df93	-0.14538412
53	0xbd95d0ad	-0.07315192
54	0x3c8e7026	0.01738746
55	0xbe16d739	-0.14730538
56	0x38c5bdac	9.429021e-05
57	0xbd981e65	-0.07427672
58	0xbe3b013a	-0.18262187
59	0x3d6ce025	0.05783095
60	0xbd7293c0	-0.059222937
61	0x3e423e5f	0.18969105
62	0x3d8818a2	0.06645323
63	0xbe34eabd	-0.1766767
64	0x3e04defa	0.12975684
65	0x3dc0dd14	0.09417167
66	0x3dfc67fa	0.123245195
67	0x3e076bf1	0.1322477
68	0xbe204ce1	-0.15654327
69	0x3e1c4bce	0.15263292
70	0xbda85e9a	-0.08221169
71	0x3e24949b	0.16072313
72	0xbd0f8112	-0.0350352
73	0xbd789ccf	-0.06069642
74	0x3e42ac98	0.19011152
75	0xbd73bc49	-0.059505735
76	0x3b6d2320	0.0036184266
77	0xbcce14cb	-0.0251564
78	0xbcc6997e	-0.024243113
79	0x3d663047	0.056198385
80	0xbe10c54b	-0.14137761
81	0xbd5ff052	-0.054672547
82	0x3c6398d5	0.013891418
83	0x3d92281b	0.07136556
84	0xbdc75c5b	-0.09734412
85	0x3dd6f39a	0.10495682
86	0x3dfbd299	0.12296028
87	0xbd4c7bf0	-0.049922884
88	0xbbf0060b	-0.007324939
89	0x3dd58fce	0.10427819
90	0xbce16af6	-0.027516823
91	0x3e00e87c	0.12588686
92	0xbd781793	-0.060569357
93	0xbda65b99	-0.081229396
94	0xbdd66efd	-0.10470388
95	0xbd8a247b	-0.06745239
96	0xbe1d3f61	-0.15356208
97	0xbd5ac104	-0.05340673
98	0xbdd2289a	-0.102616504
99	0xbe2f50d6	-0.1712068
100	0xbaecdc62	-0.001807105
101	0xbadfc9f0	-0.0017073732
102	0xbd1afa65	-0.03783645
103	0xbe373a22	-0.1789327
104	0xbcc7bd41	-0.024382235
105	0xbe5012dd	-0.20319696
106	0xbe0cb056	-0.13739142
107	0x3e41a821	0.18911792
108	0x3d8b5e64	0.06805113
109	0xbd8a948f	-0.067666166
110	0xbddf083f	-0.10890245
111	0xbc697f6f	-0.014251574
112	0x3e487bc1	0.19578458
113	0xbd918409	-0.07105262
114	0x3ca9cf5f	0.020728765
115	0x3e0e37b8	0.13888443
116	0xbd4a9d1d	-0.04946624
117	0xbe04e0ba	-0.12976351
118	0x3e4c59c2	0.19956115
119	0xbe04e49f	-0.12977837
120	0x3d75cc69	0.060009394
121	0xbd2d21db	-0.042268615
122	0xbd3f02da	-0.04663358
123	0x3d8f7c17	0.0700609
124	0x3e41b05b	0.1891493
125	0x3e0cde19	0.13756599
126	0xbe297e3d	-0.16552062
127	0xbdeb98fe	-0.1150379
128	0x3e1d87c5	0.15383823
129	0x3c422c75	0.01185142
130	0xbc9fcc2a	-0.019506533
131	0xbcfaa751	-0.03059736
132	0xbdf3e715	-0.1190931
133	0x3d75edc3	0.0600412
134	0x3d23c2ce	0.039980702
135	0xbe164847	-0.14676009
136	0x3e11f19b	0.14252321
137	0x3d329c4c	0.043606088
138	0x3e530380	0.20606804
139	0x3e4b5631	0.19857098
140	0xbc85671d	-0.01628452
141	0xbdeda98c	-0.11604604
142	0x3d4a12e2	0.049334414
143	0x3ad628c8	0.0016339058
144	0xbd994621	-0.07484079
145	0xbde6cab7	-0.112691335
146	0x3c70b7ae	0.01469223
147	0x3de988d0	0.11403048
148	0xbd8c82cb	-0.06860884
149	0xbd4364f9	-0.047703717
150	0x3dfe343c	0.12412307
151	0x3e21e201	0.1580887
152	0xbda18c7f	-0.07888126
153	0x3e2e3f29	0.17016281
154	0x3e117596	0.14205012
155	0xbddfd5e8	-0.10929471
156	0xbcb3eb38	-0.021962747
157	0xbdc6e590	-0.09711754
158	0xbdb66fa2	-0.08908011
159	0xbe59f68a	-0.21285453
160	0xbe1d4465	-0.15358122
161	0x3cf16d4d	0.029471064
162	0x3d4ef87f	0.050529953
163	0xbd641588	-0.055684596
164	0x3c912c1b	0.017721226
165	0x3da4ff25	0.080564775
166	0x3b1e508b	0.0024156894
167	0xbd6d6083	-0.05795337
168	0x3d2430ef	0.04008573
169	0xbe193ff9	-0.1496581
170	0xbd1dd643	-0.038534414
171	0xbdf1ee83	-0.118130706
172	0xbc79bba3	-0.01524249
173	0xbdcc3f8f	-0.0997306
174	0x3dce5534	0.10074845
175	0xbdcbc3b1	-0.099494345
176	0xbdc5ff67	-0.09667855
177	0xbdf9f8d6	-0.12205665
178	0x3e232687	0.15932666
179	0x3df0bdf8	0.11754984
180	0x3e1caf5c	0.1530127
181	0x3e1251c8	0.1428901
182	0x3dac7cac	0.08422217
183	0x3c9da673	0.019244408
184	0x3ddd6b01	0.10811425
185	0x3d8eb8db	0.06968852
186	0x3e75e178	0.24011791
187	0x3e464b1f	0.19364594
188	0xbe0e96db	-0.13924734
189	0xbe2c7c22	-0.16844228
190	0xba726f05	-0.00092481106
191	0xbcfd45d5	-0.030917088
192	0xbe029f0d	-0.12755986
193	0x3e154779	0.14578046
194	0x3b009344	0.0019619027
195	0x3cc7fd0a	0.02441265
196	0xbe3dadc8	-0.18523324
197	0xbd295bd2	-0.041347332
198	0x3e2e92f6	0.17048249
199	0xbd9f3b1e	-0.077749476
200	0xbdb64767	-0.08900338
201	0x3d7a0a98	0.06104526
202	0x3d5156e9	0.051108275
203	0xbe0d5c35	-0.13804705
204	0x3e0e0a10	0.13871026
205	0x3c5d2ebf	0.013499915
206	0xbdf45cdb	-0.11931773
207	0x3e0ab2d8	0.13544786
208	0x3e5bd3d1	0.2146752
209	0xbe08acd7	-0.13347183
210	0x3e3a4e3f	0.18193911
211	0x3e1cece7	0.15324746
212	0x3d9368dd	0.071977355
213	0xbde5b7a9	-0.11216671
214	0x3e38b242	0.1803675
215	0xbe3a3025	-0.18182428
216	0x3e222120	0.15832949
217	0xbe3154eb	-0.1731755
218	0xbe38ef5e	-0.18060061
219	0x3c8671a3	0.016411608
220	0xbe0eb8f4	-0.13937742
221	0xbe049d98	-0.12950742
222	0x3e083458	0.13301218
223	0x3e3bb0ec	0.18329209
224	0x3d69930b	0.057024997
225	0x3e2da995	0.16959222
226	0xbe1a271a	-0.15053979
227	0xbdeadda7	-0.11468058
228	0xbdba6218	-0.09100741
229	0xbd61ef0c	-0.055159613
230	0xbdaf84d6	-0.08570258
231	0x3e282c60	0.16423178
232	0xba17d832	-0.00057924085
233	0x3de4b2a8	0.111668885
234	0xbe092e35	-0.13396533
235	0x3e0421e3	0.12903552
236	0x3dce38f6	0.10069458
237	0xbe078f98	-0.1323837
238	0x3de4f62f	0.11179768
239	0x3e50372b	0.20333545
240	0xbd98dc3f	-0.074638836
241	0xbe19d715	-0.15023454
242	0x3df0aac7	0.11751323
243	0xbdb217c8	-0.08695942
244	0xbd9c094c	-0.07618961
245	0xbcdae2cd	-0.026719475
246	0x3df6f727	0.12058859
247	0xbe23f012	-0.16009548
248	0xbdcfbe28	-0.10143691
249	0xbe22e193	-0.15906362
250	0x3e0fd470	0.14045882
251	0x3e0bab21	0.13639499
252	0x3dd7afe5	0.10531596
253	0x3a76f505	0.0009420666
254	0x3be227ae	0.006901703
255	0xbe000ccf	-0.12504886

fc2.weight f4 [300, 300]
0	0xbd14df27	-0.036345627
1	0x3c84af62	0.01619691
2	0x3d6a48b4	0.05719824
3	0x3c6ab5cd	0.014325571
4	0x3c84e5bd	0.016222829
5	0x3c7d1192	0.015446084
6	0x3d9c3fc1	0.076293476
7	0x3d5c02e9	0.053713713
8	0x3cc99a2b	0.024609646
9	0xbd42a2d3	-0.047518563
10	0x3c43bd8a	0.011947045
11	0xbcaf00ee	-0.021362748
12	0x3c2ac0e1	0.0104219625
13	0xbd88298c	-0.066485494
14	0xbd199a00	-0.03750038
15	0x3da97992	0.08275141
16	0xbda459e2	-0.08024956
17	0x3b1fa436	0.0024359352
18	0x3bdc9630	0.006731771
19	0xbd8ef7a5	-0.06980828
20	0xbd097c3e	-0.033565752
21	0x3dc33453	0.095314644
22	0x3d1815f9	0.03713033
23	0x3d939383	0.0720587
24	0xbd195fd1	-0.037444893
25	0xbd13ac93	-0.03605325
26	0x3cac93c0	0.021066546
27	0xbc229343	-0.009922805
28	0x3c0d1c59	0.008612716
29	0x3cc054fb	0.023478022
30	0x3d3702cd	0.044680405
31	0xbd232632	-0.039831348
32	0xbc9f2f95	-0.019431869
33	0x3b23042c	0.0024874313
34	0x3d39cdb4	0.04536219
35	0xbda02891	-0.078202374
36	0x3cf38e57	0.029730959
37	0x3d98f76c	0.07469067
38	0x3d4d7046	0.0501559
39	0x3cfacf24	0.03061635
40	0xbd6e1243	-0.058122884
41	0x3d65fb51	0.056147877
42	0xbc92ea6f	-0.017934052
43	0xbc9e3815	-0.019313851
44	0x3d7a2fe1	0.061080817
45	0xbc48ad2d	-0.01224832
46	0xbd504ae9	-0.05085269
47	0x3c2e1aec	0.010626536
48	0x3c191f5e	0.009345857
49	0xbcfc510c	-0.030800365
50	0x3d7d30d4	0.061814144
51	0xbd1ad6d4	-0.037802532
52	0x3c064ad3	0.00819655
53	0xbc37ac1b	-0.011210467
54	0x3c79bb5d	0.015242425
55	0xbd8c47ad	-0.068496086
56	0x3d8aad7f	0.06771373
57	0x3c7e2c76	0.01551353
58	0xbd828a62	-0.06374051
59	0x3d46e6c5	0.048559923
60	0xbd85b4dd	-0.065286376
61	0xbcb162b5	-0.021653512
62	0x3cd07102	0.025444511
63	0xbcca829c	-0.024720483
64	0x3d8a5ec2	0.06756355
65	0xbc54e195	-0.012993236
66	0xbcc81e14	-0.024428405
67	0x3c787a4f	0.015165879
68	0x3dc0c13d	0.09411857
69	0x3ccddce6	0.025129747
70	0x3bd4deea	0.0064963
71	0xbd36d2d3	-0.04463465
72	0x3d21a481	0.039463524
73	0x3cc042ef	0.023469416
74	0x3da0b9ab	0.07847913
75	0xbd8a943e	-0.06766556
76	0x3d6c3938	0.057671756
77	0x3d3969e3	0.045266997
78	0x3da4aea7	0.08041125
79	0x3d3d2157	0.046174373
80	0xbd4e1a96	-0.050318323
81	0xbd285ffb	-0.04110716
82	0x3d0d5b21	0.034510735
83	0x3d9de18d	0.07709036
84	0xb9f83fd5	-0.00047349805
85	0x3d867bda	0.065665916
86	0x3d685918	0.05672559
87	0x3b04ab14	0.0020243572
88	0xbd8a3123	-0.06747653
89	0x3ce0c10f	0.027435808
90	0xbd20968a	-0.039206065
91	0x3cb420db	0.021988323
92	0x3cba7dd4	0.022765078
93	0x3d7f4429	0.062320862
94	0xbd9f4253	-0.07776322
95	0x3cfc726f	0.030816285
96	0xbc167c7c	-0.009184953
97	0xbc8d28e9	-0.017231422
98	0xbb5b5d39	-0.0033472313
99	0xb95a6a4c	-0.00020829699
100	0x3c764de3	0.015033218
101	0x3dc436a5	0.09580735
102	0x3bffe96d	0.007809809
103	0x3d8741b6	0.0660433
104	0x3d5d3156	0.05400213
105	0xbc86dd16	-0.016462844
106	0xbc61c80d	-0.013780606
107	0xbba6b2db	-0.005087239
108	0x3ccaf5ba	0.024775375
109	0x3c15e024	0.009147678
110	0x3ac41788	0.0014960626
111	0x3cc96045	0.024582038
112	0xba1b7500	-0.0005930215
113	0x3d637848	0.05553463
114	0xbd9573c8	-0.07297474
115	0xbadd91cd	-0.0016904414
116	0xbca189b1	-0.019718977
117	0xbd96d604	-0.07365039
118	0x3bb0af35	0.00539198
119	0x3dc7f35c	0.09763214
120	0x37d5c7c0	2.5484595e-05
121	0x3d80822d	0.06274829
122	0xbda95dc1	-0.08269835
123	0xbdacfe1a	-0.084469035
124	0x3c71a2e7	0.014748312
125	0xbd17d3c1	-0.03706718
126	0xbd181de9	-0.0371379
127	0x3c8abccc	0.016935728
128	0x3d041c9b	0.032253843
129	0xbc279453	-0.010228234
130	0xbcd891c5	-0.026436696
131	0x3c2bdba3	0.010489377
132	0x3d3edae5	0.046595473
133	0x3d84ee48	0.06490761
134	0x3d01b17e	0.03166341
135	0x3b0b3344	0.0021240273
136	0xbb8cb453	-0.0042939573
137	0x3d23376a	0.03984777
138	0xbd75ec45	-0.060039777
139	0x3d009e44	0.031400934
140	0xbd8c95b6	-0.068644926
141	0xbcfcca82	-0.030858282
142	0xbb039e1e	-0.002008326
143	0x3bf9f3a8	0.007627923
144	0xbcf9b67d	-0.030482525
145	0xbd80270e	-0.06257449
146	0x3d6c86cb	0.057745736
147	0x3ce708ae	0.028202381
148	0x3c993214	0.018700637
149	0xbbecb514	-0.0072237346
150	0xbb3ba286	-0.0028630807
151	0x3d568ad3	0.052378487
152	0xbd2cdb17	-0.042201128
153	0x3d3ea5f3	0.04654498
154	0x3ba40ce6	0.0050064204
155	0x3d23f15b	0.040025096
156	0xbc9cb2c4	-0.01912821
157	0x3d03e645	0.032202024
158	0x3d1ea19b	0.038728338
159	0x3b3ae76e	0.002851929
160	0xbd57f093	-0.052719664
161	0xbbc26b0b	-0.0059331707
162	0xbd6c88b4	-0.057747558
163	0x3c42f411	0.01189901
164	0x3d16c687	0.036810424
165	0x3d2ea50e	0.042637877
166	0x3da5f787	0.08103853
167	0x3d42d5f7	0.047567334
168	0xbb85e8df	-0.0040865983
169	0xbd87ebba	-0.06636758
170	0xbc5768ef	-0.013147577
171	0x3bbe1a84	0.0058015008
172	0xbbad971c	-0.0052975547
173	0xbd9c30b6	-0.076264784
174	0xbcd58238	-0.02606307
175	0xbd05d4b8	-0.032673568
176	0xbca28dd2	-0.019843016
177	0x3c0e5f13	0.00868966
178	0xbd6c6fbf	-0.057723757
179	0x3a0b5832	0.00053155713
180	0xbcacd754	-0.02109877
181	0x3cba9113	0.022774255
182	0xbd614196	-0.05499419
183	0x3cd322bf	0.025773404
184	0x3d959a28	0.073047936
185	0x3d448dfc	0.04798697
186	0x3af8f29f	0.0018993205
187	0xbcf75032	-0.030189607
188	0xbd2ea793	-0.04264028
189	0x3db11466	0.08646469
190	0x3cefdcef	0.029280154
191	0xbc82b8f8	-0.01595734
192	0x3c98b93a	0.01864301
193	0xbb7ad766	-0.003827536
194	0xbbee31ca	-0.007269119
195	0xbd2fe75d	-0.042945255
196	0x3d4dfa6a	0.05028764
197	0x3cc560d3	0.024094021
198	0x3d92aa69	0.071614094
199	0x3d691ef0	0.05691427
200	0xbd39d9c2	-0.045373686
201	0xbba8cbc5	-0.0051512443
202	0x3d04b80f	0.032402094
203	0x3c851bfb	0.016248694
204	0x3de8ef8b	0.11373814
205	0xbd8f4758	-0.069960296
206	0xbd00c13b	-0.03143428
207	0x3b8b9041	0.0042591398
208	0x3d882dee	0.066493854
209	0xbdca33f1	-0.09873188
210	0xbc9668f1	-0.018360587
211	0xbcae6078	-0.021286234
212	0x3d82f62c	0.0639461
213	0xbd1409d9	-0.036142204
214	0xbda8e530	-0.08246839
215	0x3c702977	0.0146583235
216	0xbd39c3ca	-0.045352735
217	0xbd3fa17c	-0.046784863
218	0xbd26a379	-0.040683243
219	0xbc815efd	-0.015792364
220	0xbc7104fd	-0.014710662
221	0x3b64e53c	0.0034926673
222	0xbc7ac3a1	-0.015305431
223	0xbd41d31f	-0.04732048
224	0xbd0e70f5	-0.034775693
225	0x3cb4f245	0.02208818
226	0x3d248ddb	0.040174346
227	0x3db6a172	0.08917512
228	0x3c7c6406	0.015404707
229	0xbd7b8617	-0.061407175
230	0xbd6b052d	-0.057377983
231	0x3c0dc2f4	0.0086524375
232	0x3d82fdd1	0.06396068
233	0xbc662a8e	-0.014048232
234	0x3d8e4e7f	0.06948566
235	0xbd3e2779	-0.046424363
236	0xbd828429	-0.06372864
237	0xbd308cd7	-0.043103065
238	0x3cc83ff9	0.024444567
239	0x3d48bb45	0.04900672
240	0xbd0f1e85	-0.034941215
241	0xbca36b4e	-0.019948628
242	0xbc3e37b5	-0.011609961
243	0xbd3300fa	-0.043702103
244	0xbce0f32c	-0.027459703
245	0x3d4c0d26	0.049817227
246	0xbd215330	-0.039385974
247	0x3d8d45c6	0.06898074
248	0xbd250855	-0.04029115
249	0x3da31672	0.079632655
250	0x3d0d2ee5	0.03446855
251	0xbb55f4e6	-0.0032647192
252	0x3cac7c68	0.021055415
253	0xbd0302c4	-0.03198506
254	0x3d020607	0.03174403
255	0xbdea9b26	-0.114553735

fc2.bias f4 [300]
0	0xbcd89fe6	-0.026443433
1	0xbd4efd2c	-0.050534412
2	0x3b0168ae	0.0019746232
3	0xbce39308	-0.02778007
4	0x3b2f3b83	0.0026738353
5	0x3d25349a	0.040333368
6	0x3cc5768b	0.024104377
7	0x3ca2f095	0.01989011
8	0x3bb7ba44	0.0056069214
9	0xbd5e9efd	-0.05435084
10	0x3c69ffbb	0.014282162
11	0x3d65239e	0.05594217
12	0x3d6108ce	0.054940037
13	0xbcccd287	-0.025002731
14	0x3d0854a8	0.03328386
15	0x3c9eb71f	0.019374428
16	0xbca978f5	-0.02068756
17	0xbcc67ea0	-0.024230301
18	0xbd69f384	-0.057117
19	0xbc577989	-0.013151535
20	0x3d869455	0.06571261
21	0xbd2736b2	-0.040823646
22	0x3d260305	0.040530223
23	0xbc801780	-0.015636206
24	0x3c01d8e6	0.007925248
25	0xb9d8adaf	-0.00041328135
26	0x3d09179c	0.03346978
27	0xbd0fd1e0	-0.03511226
28	0x3c5836be	0.013196645
29	0xbd1bdb72	-0.038051076
30	0xbd34e7f2	-0.044166513
31	0x3d6ba2d4	0.057528332
32	0x3cb02bf9	0.021505343
33	0x3cd76e9a	0.026297856
34	0xbd01bd42	-0.03167463
35	0xbb5fe4c2	-0.003416345
36	0x3cf20110	0.029541522
37	0xbb8adada	-0.004237515
38	0xbc990534	-0.018679239
39	0xbd160ff1	-0.036636297
40	0xbb91b79d	-0.0044469372
41	0xbd19d218	-0.037553877
42	0x3aa7a61d	0.0012790594
43	0xbcb6b03a	-0.022300828
44	0x3d0b5601	0.034017567
45	0xbcbef13e	-0.023308393
46	0xbca9e420	-0.020738661
47	0xbd44ebe4	-0.048076525
48	0x3d636a7e	0.05552148
49	0xbcc2760a	-0.023737926
50	0x3b3668a1	0.002783336
51	0xbc83e45c	-0.016100101
52	0x3d4a7e83	0.049437057
53	0xbd611af9	-0.054957364
54	0x3d37c2d9	0.044863556
55	0x3d4244b8	0.047428817
56	0xbd4a057d	-0.04932164
57	0xbd79d18e	-0.060990863
58	0x3d187639	0.03722212
59	0x3d0b119a	0.033952333
60	0xbd0dde9e	-0.034636132
61	0xbd2c59cd	-0.04207783
62	0x3c9b8bc5	0.018987546
63	0x3d68c1d8	0.05682549
64	0x3d684fff	0.056716915
65	0x3c0f7b1e	0.008757381
66	0x3d3c1f68	0.04592839
67	0xbd5eb254	-0.054369286
68	0x3d28960e	0.04115873
69	0x3bb7e1ca	0.005611633
70	0xbcc260e4	-0.023727842
71	0x3d2ae248	0.041719705
72	0xbd272c3a	-0.040813662
73	0xbd7d27dd	-0.061805595
74	0x3d2f11ba	0.042741515
75	0x3cd4bbd1	0.025968464
76	0xbb8b0d2e	-0.0042435145
77	0xbd40ce3f	-0.04707169
78	0x3cf96b0a	0.030446548
79	0x3cf2b573	0.029627537
80	0xbd894533	-0.06702652
81	0x3d87b4cd	0.06626282
82	0x3d570b94	0.052501276
83	0xbcfacd65	-0.030615518
84	0xbd58def5	-0.052947003
85	0x3b9966ee	0.0046814596
86	0x3be97b7a	0.0071253153
87	0xbd2a1ec2	-0.04153324
88	0x3cb0fdfb	0.021605482
89	0x3c87b26b	0.016564569
90	0xbb202488	-0.0024435837
91	0xbc5ae875	-0.013361086
92	0x3d194983	0.037423622
93	0x3b9f7836	0.004866625
94	0x3c2d0c15	0.010561963
95	0xbd4d19d7	-0.05007347
96	0xbd000aad	-0.03126018
97	0x3d683f76	0.056701146
98	0xbd34811c	-0.04406844
99	0x3d625b9e	0.055263154
100	0x3c1deb25	0.009638582
101	0x3d0b9ec9	0.034086976
102	0x3c8f6b96	0.017507356
103	0xbd1aff26	-0.037840985
104	0xbc3c1bce	-0.0114812385
105	0x3cc76baf	0.02434334
106	0xbc5de8f2	-0.013544308
107	0x3abe4729	0.0014517057
108	0xbcbeb7ee	-0.023281064
109	0x3ce22c33	0.027608966
110	0xbc84a177	-0.016190274
111	0x3d5d9b38	0.054103106
112	0xbc61acb0	-0.013774082
113	0x3c99c8c5	0.018772492
114	0xbd2076de	-0.03917586
115	0xbd20e6cd	-0.03928261
116	0xbd14ba51	-0.036310498
117	0x3bc21ddb	0.005923969
118	0xbb22b1ba	-0.0024825172
119	0x3d326544	0.043553606
120	0x3d30ce38	0.043165416
121	0x3d884fab	0.066558205
122	0x3b977f0a	0.0046232985
123	0x3d1eca02	0.03876687
124	0x3d007a83	0.031366836
125	0x3cbb1efd	0.022841925
126	0x3d686930	0.05674094
127	0xbd49fc83	-0.04931308
128	0xbc91d575	-0.01780198
129	0x3c44dcf8	0.012015574
130	0xbd189d3b	-0.03725932
131	0xbc7c1f9e	-0.0153883975
132	0xbcad7e85	-0.021178493
133	0xbc8ae232	-0.016953561
134	0x3d11e561	0.035619143
135	0xbcdf36c2	-0.02724779
136	0x3d2786b4	0.040899947
137	0xbcd1b2f6	-0.02559803
138	0xbd745d9c	-0.059659585
139	0xbd04e4c5	-0.032444734
140	0xbcbc1cc6	-0.022962939
141	0xbd57fcef	-0.05273145
142	0xbd268a4d	-0.040659238
143	0x3d3d5ab0	0.046229064
144	0xba182198	-0.00058033457
145	0xbd403e0e	-0.04693418
146	0x3d56f26e	0.052477293
147	0x3d025075	0.03181501
148	0xbd250551	-0.040288273
149	0x3d755b03	0.05990125
150	0x3b4d4d1d	0.003132648
151	0x3d5be216	0.05368241
152	0x3d7931bc	0.060838446
153	0xbb5978d0	-0.0033183582
154	0xbc88649a	-0.016649533
155	0xbcc187f0	-0.02362439
156	0x3d8ce8f6	0.06880371
157	0xbc6fc923	-0.014635357
158	0xbbda677e	-0.0066651693
159	0x3d6318a2	0.055443414
160	0x3d3808d9	0.044930313
161	0x3d423918	0.04741773
162	0x3d3d84a3	0.04626907
163	0xbd3f8413	-0.046756815
164	0xbd1b797e	-0.03795766
165	0xbca87f7f	-0.020568607
166	0x3c02cc50	0.007983282
167	0xbd487597	-0.048940267
168	0x3d797fd8	0.060912937
169	0x3d545f22	0.05184854
170	0xbcbb7795	-0.02288417
171	0x3d0f0463	0.034916293
172	0x3cfe3988	0.031033292
173	0x3cc29066	0.023750495
174	0x3d551bad	0.052028347
175	0x3cf407bd	0.029788846
176	0xbcb99f4e	-0.02265897
177	0x3d0cadfd	0.034345616
178	0xbc910652	-0.01770321
179	0x3d483a6b	0.048883837
180	0xbcaa847b	-0.020815125
181	0x3d35e423	0.04440702
182	0x3d6116dd	0.054953445
183	0x3c6e4e57	0.014545045
184	0xbbb9d165	-0.0056707137
185	0xbc4e3011	-0.012584702
186	0x3c8d9889	0.017284648
187	0x3d266259	0.040621135
188	0x3cf53bd7	0.02993576
189	0x3cdf9fed	0.027297938
190	0x3d870cc9	0.065942355
191	0xba75ec32	-0.0009381204
192	0xbaad445a	-0.0013219223
193	0xbc3ceca9	-0.011531034
194	0xbcbf4c0e	-0.023351695
195	0xba1b22e0	-0.00059179775
196	0x3b40c8e0	0.0029416606
197	0xbcbfd77d	-0.023418183
198	0x3d3e5f83	0.046477806
199	0xbcbbad3e	-0.022909757
200	0x3d445562	0.04793299
201	0xbd70e7d6	-0.058814846
202	0xbd39cb33	-0.0453598
203	0xbc80e784	-0.015735395
204	0x3c8a0223	0.016846722
205	0x3bc25bf8	0.0059313737
206	0xbc88d5ca	-0.016703505
207	0xbcaf6504	-0.021410473
208	0xbd0f893d	-0.03504299
209	0x3d4a6148	0.04940918
210	0xbbc13769	-0.005896498
211	0xbc2b34e8	-0.010449626
212	0x3cb83aa9	0.022488909
213	0xbd396055	-0.045257885
214	0x3c1e75f6	0.009671679
215	0x3d69b210	0.05705458
216	0x3c46f083	0.012142303
217	0xbca1fc8e	-0.019773748
218	0x3b987df5	0.004653687
219	0xbd090421	-0.033451203
220	0x3d8ae51a	0.06781979
221	0x3d6b2b09	0.05741409
222	0xbd52b11a	-0.05143843
223	0x3d1e44dc	0.03863989
224	0x3d20896a	0.03919355
225	0x3d500ef3	0.050795507
226	0x3c2b87ce	0.01046939
227	0xbce12319	-0.027482556
228	0xbd0e07fb	-0.03467558
229	0x3d3ecab0	0.046580017
230	0x3c3ac9f8	0.011400692
231	0xbce35815	-0.027751962
232	0xbcf99ace	-0.030469324
233	0x3d3fe4ec	0.046849176
234	0x3ce806b5	0.02832351
235	0x3d34adfe	0.044111244
236	0xbc76696f	-0.015039786
237	0x3c63818a	0.013885865
238	0xbc200bfe	-0.009768484
239	0x3d1da16b	0.03848402
240	0xbd2f325d	-0.04277264
241	0x3d40b1d8	0.047044605
242	0x3d0801c3	0.033204805
243	0xbbc276a4	-0.005934553
244	0xbb3db6a9	-0.0028947985
245	0xbca82ca4	-0.020529099
246	0xbd347e71	-0.044065896
247	0x3d2fcba8	0.04291883
248	0xbbefe1e9	-0.0073206318
249	0x3d394964	0.045236006
250	0xbd28fbbc	-0.041255698
251	0xbc6edc42	-0.014578881
252	0xbc4235d9	-0.011853659
253	0xbc597710	-0.013273016
254	0x3d518fa3	0.051162373
255	0xbc30a214	-0.01078083

fc3.weight f4 [4, 300]
0	0xbb8ca0cc	-0.0042916294
1	0xbc6f44f7	-0.014603845
2	0x3cab5430	0.020914167
3	0x3cef951e	0.02924591
4	0x3be8cdbf	0.007104605
5	0x3b9699e7	0.0045959833
6	0xbd16035e	-0.036624305
7	0xbae6b0dd	-0.0017600317
8	0x3c5f84d2	0.013642507
9	0x3c20a0f1	0.009803996
10	0xbd274112	-0.04083354
11	0x3d96ade7	0.07357388
12	0xbd7eba5c	-0.062189445
13	0x3d22010c	0.03955178
14	0x3e02186b	0.12704627
15	0x3d424c14	0.047435835
16	0xbda6512a	-0.081209496
17	0xbd7fcb68	-0.062449843
18	0x3cea3bde	0.028593
19	0xbd311b8b	-0.043239158
20	0x3d832ba1	0.06404806
21	0x3da51d2c	0.08062205
22	0x3d7524e5	0.05984964
23	0xbca9de48	-0.020735875
24	0x3d45ce3f	0.048292395
25	0x3d810375	0.062994875
26	0xbd59fa9a	-0.053217508
27	0xba704e4e	-0.0009166942
28	0x3d18e1e1	0.03732479
29	0x3d225073	0.039627504
30	0xbb854062	-0.004066513
31	0x3d8efcfb	0.06981846
32	0xbc2f44e3	-0.010697576
33	0xbb38aa46	-0.0028177663
34	0xbc46c978	-0.012132995
35	0x3d71b192	0.059007235
36	0xbd667fb7	-0.056274142
37	0x3b3fdb06	0.0029274835
38	0x3da9fbdf	0.08299994
39	0x3d47b0eb	0.048752706
40	0xbdd01798	-0.1016075
41	0xbceb3d2f	-0.028715698
42	0x3d42c79c	0.047553644
43	0xbd0c5ab4	-0.03426619
44	0xbd796e90	-0.060896456
45	0x3d363e4b	0.044493
46	0x3d8dee28	0.0693019
47	0xbc8de5c6	-0.017321479
48	0xbd87f05c	-0.06637642
49	0xbcfc5c64	-0.030805774
50	0xbcfab644	-0.03060449
51	0x3d547d31	0.051877204
52	0xbd393c14	-0.04522331
53	0x3c3b8082	0.011444213
54	0x3decbe21	0.11559702
55	0x3d2bab83	0.041911613
56	0xbd6fd8d2	-0.058556385
57	0x3b6c5653	0.0036062195
58	0x3d0d40fa	0.034485795
59	0x3d159eff	0.036528584
60	0x3d104d6e	0.035230093
61	0xbda62ac9	-0.08113629
62	0x3ddca9aa	0.10774548
63	0xbdc97edb	-0.09838649
64	0xbc06ff48	-0.008239575
65	0xbd2347c6	-0.03986337
66	0xbdb2521b	-0.087070666
67	0x3d007deb	0.031370085
68	0xbc9f8a80	-0.019475222
69	0x3cb58773	0.022159314
70	0x3bac0b22	0.0052503506
71	0x3caa4161	0.020783128
72	0xbc140ded	-0.009036523
73	0xbcd997f2	-0.026561711
74	0xbde7aa8f	-0.11311828
75	0x3d304cf6	0.043042146
76	0x3daa85dc	0.08326313
77	0x3d34e1b0	0.044160545
78	0xbd898e71	-0.06716622
79	0x3d3223fc	0.04349135
80	0xbcd99c30	-0.026563734
81	0x3d92e90d	0.07173357
82	0x3d47fec4	0.048826948
83	0xbdc85053	-0.09780946
84	0xbbd83d3e	-0.0065990975
85	0xbd319995	-0.043359358
86	0x3dbefdef	0.09325778
87	0x3cabdf01	0.02098036
88	0x3cc7ef68	0.02440615
89	0xbd30180b	-0.04299168
90	0xbda4cf53	-0.080473565
91	0xbdaf3a3f	-0.085560314
92	0x3d052396	0.03250464
93	0xbd375bce	-0.044765286
94	0xbc5f490c	-0.013628256
95	0x3c6a5972	0.014303552
96	0x3c79187f	0.015203594
97	0xbc0fecba	-0.008784467
98	0x3d830a13	0.06398406
99	0x3cf734e4	0.030176587
100	0x3dde53a7	0.10855799
101	0xbce5e807	-0.02806474
102	0xbd56f30d	-0.052477885
103	0xb712ac82	-8.742443e-06
104	0x3c963982	0.018337969
105	0xbda81c1f	-0.08208489
106	0xbcbbff59	-0.022948908
107	0x3ca9005a	0.02063005
108	0xbcb00a4e	-0.021489289
109	0xbd676dba	-0.056501128
110	0x3ccd2f64	0.025047012
111	0x3c277d34	0.010222722
112	0x3d21321c	0.03935443
113	0xbcdd302c	-0.02700051
114	0x3cd4dca4	0.025984116
115	0x3d45dab1	0.048304264
116	0xbdc4662f	-0.095898025
117	0x3d11aed4	0.03556712
118	0xbc4a4050	-0.012344435
119	0x3d0b88b3	0.034065913
120	0xbde6b7a6	-0.11265497
121	0x3daac79f	0.08338856
122	0x3c2f29c9	0.010691115
123	0x3d51c710	0.05121523
124	0x3ce99177	0.028511746
125	0x3d25c61c	0.040472135
126	0x3dc38fc9	0.09548909
127	0xbd3bde91	-0.045866553
128	0x3d2b0e3a	0.041761614
129	0xbd385d3d	-0.045010794
130	0xbd8f3500	-0.06992531
131	0x3c40e086	0.011772281
132	0x3c561a0e	0.013067735
133	0x3df2462f	0.11829793
134	0xbdcceb22	-0.100057855
135	0x3d830cd4	0.06398931
136	0xbd017860	-0.03160894
137	0x3dc01082	0.093781486
138	0x3cfcf329	0.030877667
139	0x3cd8d63f	0.026469348
140	0x3dac3958	0.08409375
141	0x3d0c560a	0.03426174
142	0xbe0118fa	-0.12607184
143	0x3d8af9ad	0.06785903
144	0x3da91932	0.08256759
145	0xbc72f68d	-0.01482929
146	0xbcb072e7	-0.021539165
147	0x3d25f356	0.040515266
148	0x3d893ee5	0.06701449
149	0x3b8bd9f6	0.0042679263
150	0xbcae8aef	-0.021306483
151	0xbcc7e21b	-0.024399808
152	0xbcc2fcf6	-0.023802262
153	0xbd868bee	-0.06569658
154	0xbd12be78	-0.035826176
155	0xbd43f04f	-0.047836598
156	0xbc9f12ba	-0.01941811
157	0xbd5819e9	-0.052759085
158	0x3d5d5aff	0.05404186
159	0x3d89c3e6	0.06726818
160	0xbd6d7a95	-0.05797823
161	0x3dadfe36	0.084957525
162	0x3ddaf7f6	0.10691826
163	0x3d0561be	0.032563917
164	0xbb1c2fe4	-0.0023832256
165	0x3d340a57	0.043955173
166	0xbd2df8a1	-0.04247344
167	0xbdc7203f	-0.09722947
168	0x3bb4805b	0.005508465
169	0x3cb02487	0.021501793
170	0x3d06263a	0.0327513
171	0x3d5ef39b	0.05443154
172	0xbc4b3a6a	-0.012404064
173	0xbd354e7b	-0.044264298
174	0x3d3838ce	0.04497605
175	0xbca68a89	-0.02032973
176	0x3cdf16ce	0.027232554
177	0x3dafd8a6	0.08586244
178	0xbc342431	-0.010994957
179	0xbd70b458	-0.05876574
180	0xbcc0fff9	-0.023559557
181	0x3d654e6c	0.055982992
182	0xbce18877	-0.027530892
183	0x3d2e959b	0.042623144
184	0xbc6c0c73	-0.014407265
185	0xbd54390b	-0.051812213
186	0xbcd6bdf5	-0.026213625
187	0xbcf5a633	-0.029986477
188	0x3c56ecb3	0.013117957
189	0xbd93c8e5	-0.07216052
190	0x3c8d3b9f	0.017240344
191	0xbd98fa5b	-0.074696265
192	0xbb4b9d1e	-0.003106899
193	0xbc420830	-0.011842772
194	0xbcb36b2c	-0.02190169
195	0x3cdb0fe6	0.02674098
196	0x3d82f889	0.063950606
197	0xbd87eb64	-0.06636694
198	0xbd099486	-0.03358891
199	0xbcab4fe7	-0.020912124
200	0x3da5bc97	0.08092611
201	0xbc277a15	-0.010221978
202	0xbd1f0a91	-0.038828436
203	0xbd2d29b9	-0.042276118
204	0xbd395d06	-0.04525473
205	0x3cdd979d	0.027049834
206	0x3d8a54be	0.067544445
207	0xbd2fc91e	-0.04291641
208	0x3c22aa59	0.009928309
209	0x3d5cdc4e	0.053921036
210	0xbc93c68d	-0.018039012
211	0x3d8737dc	0.06602451
212	0xbd29f8f4	-0.041497186
213	0xbcec0ed1	-0.028815659
214	0xbcbd3a0a	-0.023098964
215	0xbc271e1d	-0.010200051
216	0xbcf93cab	-0.030424437
217	0xbd0547d5	-0.032539207
218	0x3dc7c541	0.0975442
219	0x3cc0197c	0.023449652
220	0xbc555711	-0.0130212465
221	0x3d20e864	0.039284125
222	0xbac7acb1	-0.0015233961
223	0x3d0cb619	0.03435335
224	0x3caad9f9	0.02085589
225	0x3dadda14	0.08488861
226	0x3c9e9fe1	0.019363346
227	0xbca79520	-0.02045685
228	0xbaa2a564	-0.0012408909
229	0x3d0a940b	0.03383259
230	0x39460f24	0.00018888392
231	0x3bda98cc	0.006671047
232	0x3c285462	0.010274025
233	0xbd26e4d4	-0.04074557
234	0x3c93dd0a	0.018049736
235	0x3d948206	0.072513625
236	0xbdcfa1b8	-0.10138267
237	0xbd039bec	-0.03213112
238	0xbd24c93e	-0.040230982
239	0xbd5bc5a5	-0.053655285
240	0xbdbc1892	-0.09184374
241	0x3cadbc3b	0.02120792
242	0x3d36fef1	0.044676725
243	0x3d54f042	0.05198694
244	0x3d2fed27	0.042950775
245	0xbd037d89	-0.03210214
246	0x3dbd16fc	0.092328995
247	0xbd121ca8	-0.03567186
248	0x3d603b6c	0.05474417
249	0x3cc52ba9	0.02406867
250	0xbdb89450	-0.09012663
251	0x3d580dbc	0.052747473
252	0x3dcdf30a	0.10056122
253	0xbcb4c4ad	-0.022066439
254	0x3ce1c56c	0.027559958
255	0xbc8a969e	-0.016917523

fc3.bias f4 [4]
0	0x3cfeed2d	0.031118954
1	0xbb37645f	-0.002798341
2	0x3c72dd3c	0.014823254
3	0xbd1dde9b	-0.03854237
