Bipedal/policy_vpg_308.pkl (torch_old, 397037 bytes, 6 tensors)

fc1.weight f4 [300, 24]
00000000: e52f 1e3e 46a1 5d3d 55c9 ddbd f881 a23d
00000010: a282 7f3e 7077 893d dbde 06be ac0f 983d
00000020: 0fa5 21be e354 15be 0612 023c 8c79 88be
00000030: 2ab2 233e 9137 2ebc 7241 663e cf24 07be
00000040: 692b 1d3e 66f4 82bc d100 6e3d b6d8 6d3c
00000050: 059a dfbd 204b a83c b3db b93d 62b2 c03d
00000060: f5c7 1ebe abe1 c53d 68a3 eebd 0dad 513c
00000070: 6148 d2bb 3cd9 333e 8a28 163d 7f9a 7cbd
00000080: dba4 01bb d248 aebd 720d 38be 11a1 09be
00000090: 009e 2b3e 7d39 c7bc 89e1 4fbe 5fba 0bbe
000000a0: 691b 1b3e cc61 15be 4822 3c3d a078 323d
000000b0: 91af 03be 13c7 163e e1a9 2a3e da69 0fbe
000000c0: cabb 223d 306e 3ebc 5830 26be ed32 1fbe
000000d0: cc0d 1a3e 36ba 38bd e449 4d3e fae9 f9bb
000000e0: 418f e43d d5f9 01be 6864 2a3b 4b16 33be
000000f0: 6eca 5bba 347a 05be dd8a 36be e522 f1bd
00000100: b757 3dbe 074c 1b3e c2fa 8b3c 4498 bbbd
00000110: 2edb bd3d 7745 053d 5092 173e 6dc0 cebd
00000120: 2e7a 233c 04ae 343e 9206 f3bd d6da d7bd
00000130: 4d07 1f3d 0b02 f03d d9f7 44be e932 17be
00000140: 96f1 8abb a05d 633e 53a8 94bb 2265 2bbe
00000150: 0332 a33d 3d9d 9a3d 0283 e6bd 4865 edbd
00000160: 992d b1bc 5e95 d23d fb44 02bd ba21 d3bc
00000170: 4f7c 7abd d079 ee3d ec9d a53d 8308 313e
00000180: 786d 063d 6806 383d 25f8 5bbe 7fc0 a53d
00000190: 868b cc3d 3aa7 173e fc9a 96bd f62e d33d
000001a0: 35f7 49be c984 053e 7009 41be e387 ee3d
000001b0: 1eab 983d 9702 e83d c32b 9ebd 1880 c43d
000001c0: a565 2cbe a722 353e d821 5dbe 9a3a 0abe
000001d0: 5351 11be cbf1 0f3e 7dfe ddbd 8795 57be
000001e0: 0be3 523e eac2 993e 8f31 263e cc43 11be
000001f0: e566 243e 630a 2d3d e3df bbbc 8595 d1bd
00000200: 5b52 3cbd 2bd2 18be 849a 55be 510d 64be
00000210: 4ebd 33be 19ef 10bd d9ae f1bd 40d2 c53c
00000220: 569c efbc 5b58 0abd f777 813d d600 233e
00000230: 2526 d93c 679d 023e d0da 263e 9de7 4abe
00000240: b556 ce3c 8d1c 06bb 0a93 9c3d eddf cbbd
00000250: 28dd 203c a08f 33bd e975 393e 715a ab3d
00000260: 79de 743d a093 8e3d d307 b8bd 9fd2 773e
00000270: ae3b 3d3e 5a8f fa3d fdf4 2b3e 8e8b b03d
00000280: 1c44 393e 60df e23d ed1f 453b e9cb 9a3d
00000290: b83e fe3d 1634 b03b 9995 1d3e 898e 5dbd
000002a0: 579e 3a3e 4d1b 83be 7bb1 0abd c02b e8bc
000002b0: ca85 dd3d f01a 09be 0a33 f1bd 7c19 c6bd
000002c0: 8042 543d 0773 913d a136 a43d c8b3 903e
000002d0: 93b6 293e 5141 e93d 531c d93d 9936 21be
000002e0: a2ad 11be 2b8f c0bb c6fa 243e f3a7 31be
000002f0: df9c 533e 481b 6ebc a048 de3d 7f58 12be
00000300: 17ff 113e 9276 60be a2a2 69be c2ae cdbc
00000310: 46a1 21be 9683 763e a7b3 b93d 7f7e 99bc
00000320: 6f81 7ebd 400f 2c3e f4e9 133c c5a2 c03c
00000330: cff6 12be dda8 1ebe ac4c 093e 555d d43d
00000340: f7b9 f53d cab4 253e 13c9 343e 7046 473e
00000350: ef4c 333e 6098 353e 0498 6fbd 4d16 e6bd
00000360: 5305 41be 3d93 a6bc df41 9fbd 9254 39bd
00000370: 3994 f3bc 5014 f03d 9565 3f3d ffa0 b33d
00000380: 2123 a1bd 5d77 16be 8736 293e 9920 833d
00000390: 4ba8 453e e8cd c43c 1d64 123d 1415 4d3e
000003a0: d343 a23d a9bc 20be 62dc 10be b258 fdbb
000003b0: c934 bf3d 0873 4b3e a025 2c3e 4bb0 22be
000003c0: b6b9 3dbd efac 1f3e acef cf3d d2f4 10be
000003d0: 7be2 263e baf8 d9bc bc16 343e 0551 873c
000003e0: 2cfa b53c 7866 3bbe 708a d93d 775d 81be
000003f0: 4c5c 6d3c 1bf9 49bc bda5 2c3e 4928 49bd
0.15447958 0.05410888 -0.10829417 0.07934946 0.24952176 0.06712234 -0.1317095 0.07424864
-0.15785621 -0.14583163 0.007938867 -0.26655233 0.15985933 -0.010633365 0.22485903 -0.13197635
0.15348591 -0.015985679 0.058106247 0.014517 -0.10918049 0.020543635 0.090751074 0.09409024
-0.15505965 0.096621834 -0.11652261 0.012797606 -0.0064173196 0.17563337 0.036659755 -0.061670776
-0.00197821 -0.08509983 -0.17973879 -0.13440348 0.16759491 -0.024319405 -0.20300879 -0.13645314
0.15147175 -0.14588088 0.04593113 0.04357207 -0.12859942 0.14724378 0.16666366 -0.14005223
0.03972987 -0.01162295 -0.16229379 -0.1554677 0.15044326 -0.04509946 0.20047718 -0.007626769
0.11160136 -0.1269296 0.0025999788 -0.17488973 -0.00083843514 -0.13034898 -0.1782641 -0.11774234
-0.18490492 0.15165721 0.017087344 -0.09159902 0.09270321 0.03253695 0.14801908 -0.10095296
0.00997786 0.17644507 -0.118664876 -0.105397865 0.038825322 0.1171914 -0.19235171 -0.14765514
-0.004240225 0.22203684 -0.0045366674 -0.16737798 0.07968523 0.07549522 -0.112554565 -0.115915835
-0.021628188 0.10282396 -0.031804066 -0.025772918 -0.061153706 0.11644328 0.08086762 0.17288403
0.03281924 0.044927984 -0.21481378 0.08093356 0.099875495 0.14809886 -0.0735378 0.103116915
-0.19723208 0.13038935 -0.18851256 0.11647012 0.07454513 0.11328619 -0.07723191 0.095947444
-0.1683565 0.17689 -0.21594942 -0.13498917 -0.14191179 0.1405708 -0.108395554 -0.21053134
0.20594423 0.3003152 0.16229843 -0.14186019 0.16054876 0.042246234 -0.022933906 -0.10233597
-0.045976978 -0.14923923 -0.20859724 -0.22270705 -0.17552683 -0.03538427 -0.11800928 0.024148107
-0.029249351 -0.03377567 0.063217096 0.15918288 0.026507447 0.12755357 0.16294408 -0.19814916
0.02518783 -0.0020463795 0.07645233 -0.0995482 0.009818353 -0.043838143 0.18111385 0.0836686
0.05978248 0.06961751 -0.08985867 0.2420144 0.18479797 0.122343734 0.16792674 0.08620368
0.18092388 0.11077762 0.0030078844 0.07558424 0.124143064 0.005377303 0.15389098 -0.05409101
0.18224464 -0.25606766 -0.033860665 -0.028341174 0.10816534 -0.13389182 -0.11777313 -0.096728295
0.05182123 0.07102018 0.08018232 0.28262162 0.16573553 0.11389411 0.106011055 -0.15743484
-0.14226392 -0.005876442 0.16111287 -0.17349224 0.2066531 -0.014532872 0.10853696 -0.14291571
0.14257465 -0.21920231 -0.22815946 -0.025107745 -0.15784177 0.24073634 0.09067469 -0.018737076
-0.062135156 0.16802692 0.009027947 0.023515115 -0.14351963 -0.15494104 0.13408154 0.10369364
0.119983606 0.16182247 0.17654829 0.19460464 0.17509817 0.17733908 -0.058494583 -0.11234722
-0.18849687 -0.02033388 -0.07776236 -0.04524667 -0.029733764 0.11722624 0.046727736 0.08770942
-0.078680284 -0.14693971 0.16524707 0.06402702 0.1930248 0.024023965 0.035740007 0.20027572
0.07923093 -0.15696968 -0.1414657 -0.0077315206 0.0933624 0.198681 0.16811228 -0.15887563
-0.046319686 0.15593313 0.10153136 -0.14155892 0.16297333 -0.02660786 0.17586797 0.016518125
0.022214018 -0.18300807 0.10622108 -0.2526662 0.014487337 -0.012327458 0.16860099 -0.049110685

fc1.bias f4 [300]
00000000: 11ec 0fbe 15a3 af3c 34b2 e6bc 7049 c73d
00000010: f4a7 59bd 651d 513d 83f9 a3bd cfdc 96bc
00000020: 0f8c 4bbe ce59 ec3d b33c 39bd d858 a53d
00000030: 9054 02be 60df 993b 4863 f93d 7cd2 debd
00000040: d668 89bd 8cd7 593e 0e95 28be 113e 39be
00000050: fb53 353e 360a 853d e8d8 b6bd 4ad2 933c
00000060: cf8f 2a3e 8285 d3bd b68d ca3c abf2 40be
00000070: 4200 273e 205d 4c3e ce4c d43a c8ea 0abe
00000080: a5d3 4dbb ef04 8ebc ea57 1a3e 7489 093e
00000090: 215e 0b3d 1694 463d 16a6 7a3b 13d3 ff3d
000000a0: 7bb2 c53b 0b9a faba 701d ff3d 1df8 cf3d
000000b0: 8d4c 39be 15d1 b8bd 708d 81bc 6259 0ebd
000000c0: 3c8f 093c b649 4f3e 4967 1d3e e7ee 84bd
000000d0: 35b3 bc3d 1f55 08be 3519 afbd 8bfd 02be
000000e0: 472e 243e 45eb 44bd 0bb6 27be 95b4 6bbd
000000f0: 2bc7 393d a06d 4c3e ec8a b2bd 9a24 0c3c
00000100: cac5 a8ba 62bb 3c3d adce 493d fb32 0e3e
00000110: 71ee da3d 33bc 2cbe 1a18 90bd 3b7e 123e
00000120: da75 a33c e1e4 223e 78aa 15bd f24a dcbc
00000130: c098 2f3e 4ea6 533d e302 1ebe 6c76 2ebd
00000140: 70ad 0b3e 6194 413e 46f1 b5bd 9d3f 873d
00000150: 6b8e 92ba 4b60 53be 57e8 613e 1dbd 40be
00000160: c65f a53c c189 0ebe b14d ac3d 4adc cc3d
00000170: e49f 10be d3be 2f3e ab71 173e ff37 183e
00000180: 0282 9b3a bac3 04bc 997e e7bd e227 883d
00000190: 528b f43b 8aa8 d5ba 650a 9b3d 9bcc 083c
000001a0: f03b 5b3e 8f2a 153e c497 94bd febc 393e
000001b0: 303c 20be 54b3 923a 1e6b 73bd 0ca3 6c3d
000001c0: 7bdc 3a3e 0b58 2c3e cbbd 303c 83df b33d
000001d0: 5f61 0a3e d2ab c63d 243b 4dbd 4a8c eb3d
000001e0: 906f 32be 7fd3 923d 2149 a5bd bd8a 083e
000001f0: 7aef a03d 920e 03be f66f 98bd 2ad1 9f3d
00000200: f904 b2bd 52ed f83b 02f4 893d 44af 163e
00000210: 438c 30bd 8045 bc3d 2760 c83d 8483 293e
00000220: 6283 e2bc 0a3f 85bd 4756 cbbd 84e9 1fbe
00000230: 6aa7 033d 7e04 5bbd 8870 3b3e 9434 f7bd
00000240: e13c bdbc b83d e93d 3b3b 053d 27ce e9bd
00000250: a79c 423d 1506 1b3e 692b 113e 6d71 1ebe
00000260: 33db 41be 9a70 1abe d4da a1bd 800e 883d
00000270: 014e 483e b38d f23d f545 8f3d e6c3 b5bd
00000280: 5d8b 7dbd 97bd ccbd b61c 91bc bc2a ed3c
00000290: a190 35be 5d6e 513e a1e7 a4bd 7b90 073e
000002a0: 9da2 c2bc 7858 cfbc ee33 4c3e 7d07 b9bc
000002b0: ff55 47be 458c 363e de50 13be 2eb2 f03c
000002c0: ed35 8b3d 3d11 f8bc 98ec 04be 120b 38be
000002d0: 29e2 cf3d 5d93 533e 8dfa 17be f9fc 71bd
000002e0: 3a73 1f3e a732 f1bd e325 e33d 8688 523e
000002f0: 4f1c 053e ecd6 a43c 3217 9bbd 6d63 023d
00000300: fef0 00bb 5f85 20bd 55d8 b7bd 171e 07be
00000310: 4d77 02be c9f2 d33d ba8f f03d 815f 383e
00000320: 4d67 0abe 2faa 503d ba08 243d ed61 71bd
00000330: 9a93 bd3d 443f b0bd 3f61 723d 4305 9abd
00000340: 87e5 b83d d56e 303d d486 12be 0787 103d
00000350: b776 253d 43a3 11bc bce8 51bd 8433 dabd
00000360: 9d11 6bbd 9c4b 37bd 269a fb3d 7f72 2cbd
00000370: d775 833c 9677 bc3d 79bc 1ebd b78b 8b3d
00000380: 2bf0 b8bd 2bdb a8bd 4e7e 233e 9156 c73d
00000390: 5e75 2b3e 7e28 f1bd 3189 b63c c3d2 cfbd
000003a0: 8a3d 9abd 9fe9 9abc ca47 87bc 3c5a 02be
000003b0: 9bd8 d93c 49c7 a93d 0378 993d 3480 303e
000003c0: 8a97 15be eaf6 f8bd 4c18 0cbc 3db4 acbc
000003d0: 99a6 1bbe a4fb 24be 7856 513e 6456 12be
000003e0: 703f c43d 7c89 013e fb55 8ebc aa6d 05be
000003f0: dfa5 793d 7291 a43d 610a 1b3d 822a 103e
-0.14054896 0.021440068 -0.028161146 0.09730804 -0.05313869 0.051053423 -0.08006575 -0.018415837
-0.19877647 0.115405664 -0.045223903 0.08073586 -0.1272757 0.004695818 0.121771395 -0.108799905
-0.06709449 0.21273631 -0.1646311 -0.18090083 0.17707817 0.06496088 -0.0892809 0.01804461
0.16656421 -0.10328199 0.024725776 -0.1884257 0.16308692 0.199574 0.0016197206 -0.13566124
-0.0031406668 -0.017336337 0.15072599 0.1343134 0.034025315 0.04848107 0.0038245968 0.12491431
0.0060332394 -0.0019119395 0.12456787 0.10154746 -0.18095608 -0.09024254 -0.015814513 -0.03475321
0.008395966 0.20242962 0.15371431 -0.064908795 0.092138685 -0.13313721 -0.0854973 -0.12792031
0.16033278 -0.048075933 -0.16378038 -0.057545263 0.045355957 0.19963694 -0.087179035 0.008553648
-0.0012876329 0.04607714 0.049269367 0.13886635 0.1069001 -0.16868667 -0.07035847 0.14305966
0.019953657 0.15907623 -0.036539525 -0.026891205 0.17148113 0.051672272 -0.15430789 -0.042593405
0.1364038 0.18904258 -0.0888391 0.0660393 -0.001118136 -0.20642202 0.22061287 -0.18822141
0.02018727 -0.13919736 0.08413256 0.10002954 -0.14123493 0.17162637 0.14789455 0.14865111
0.0011864307 -0.0081033055 -0.113034435 0.06648232 0.0074628973 -0.0016300839 0.07570342 0.008349563
0.21409583 0.14567016 -0.072555095 0.18138501 -0.1564796 0.001119236 -0.059428327 0.05777268
0.18248169 0.1683046 0.010787438 0.08782866 0.13513707 0.09700741 -0.05010523 0.115013674
-0.1742537 0.07169246 -0.08070589 0.13334174 0.078581765 -0.12798527 -0.0744323 0.07803567
-0.08692355 0.00759665 0.06735994 0.14715296 -0.043102514 0.091929436 0.097839646 0.16554075
-0.027650539 -0.06506164 -0.099285655 -0.15616423 0.03214208 -0.05347108 0.18304646 -0.12070575
-0.023100318 0.11388725 0.03252719 -0.114162736 0.047512677 0.15139039 0.14176716 -0.15472956
-0.18931274 -0.15082017 -0.07903066 0.06643391 0.19561006 0.11843433 0.06995765 -0.08875255
-0.061900485 -0.09997099 -0.017713886 0.028951041 -0.17730953 0.20452257 -0.08051992 0.13238709
-0.02375918 -0.02531074 0.19941685 -0.022586579 -0.19466399 0.17826946 -0.14386317 0.029381838
0.06797395 -0.030281657 -0.12980878 -0.17972973 0.101505585 0.20661683 -0.14841671 -0.059079144
0.15571299 -0.11777239 0.11091211 0.20559892 0.1299908 0.020122014 -0.075727835 0.0318331
-0.0019674893 -0.039189693 -0.08976809 -0.13195072 -0.12740822 0.10349042 0.11746164 0.18005182
-0.13515969 0.05094355 0.040047385 -0.05893128 0.092566684 -0.08605817 0.059174772 -0.07520535
0.09028154 0.043074448 -0.14309245 0.035285022 0.04039642 -0.008889022 -0.051247343 -0.10654357
-0.057389844 -0.04474984 0.12285261 -0.04210138 0.016047401 0.09202497 -0.03875396 0.06813758
-0.090301834 -0.08244928 0.1596615 0.09733308 0.16743991 -0.117753014 0.022282215 -0.101476215
-0.07531269 -0.018910227 -0.016513724 -0.12729734 0.026592543 0.08289964 0.074935935 0.17236406
-0.14608589 -0.1215647 -0.008550715 -0.021082038 -0.1520027 -0.16111618 0.20443141 -0.14290768
0.09582412 0.12650102 -0.017374983 -0.13030115 0.060949203 0.08035554 0.037851695 0.14078715

fc2.weight f4 [300, 300]
00000000: e15c 30bd 04df 3a3d 3119 6cbd 0b29 dcbc
00000010: fcb8 1b3d caea 003c 2752 5b3d d3cf 733c
00000020: 5475 16bd 4b3d 1cbd f252 a8bc 5563 26bc
00000030: dd51 413d b519 463d 632d 343d a2b8 823d
00000040: 87e6 413d 67c2 713d 1c25 24bd 4f53 dd3c
00000050: 1c45 5d3d 83c6 09ba 5df4 2f3d ee2e b6bc
00000060: 991e e9bc 0e7b 763d d10b 35bc 19a3 e73b
00000070: 30fd b4bb b384 1cbd daef ca3d 7e4d 1d3c
00000080: fb09 3a3d bd3a 1f3c 466f 953c a9c1 49bc
00000090: c9c2 283b 696f db3b 1252 88bd d0d7 393d
000000a0: ca66 2ebd 613b 083d 846f ca3b 516c 5aba
000000b0: b563 30bb 9098 66bc 1073 49bd 48b0 7c3c
000000c0: e304 0f3d cf84 943c 0055 26bc cad9 6ebb
000000d0: 1e45 093d 3ec0 533d be32 a43b 84ef 6fbc
000000e0: 5178 6d3d 6a50 ec3c 2fbb 35bd 1941 1ebd
000000f0: ae9c 8ebd 42e7 3abd fdd7 1bbd 2b0a 2b3d
00000100: ec2c 82bd c265 1dbd 92d3 533d 8361 453c
00000110: cd1d 85bd 6673 963d 2f09 87bc a02c 403d
00000120: 4114 47bd 4094 26bd a48a 173d a11d 293c
00000130: 85ea ddbc 6286 be3c 638f 76bc 6f0a 74bd
00000140: b42f b83c d6ba fb3b 3662 e0bc 4929 2e3c
00000150: dc49 32bd a274 a7bc b3c1 d43c ca13 05bc
00000160: 480e 73bd aac5 e33a a3a3 a03c ae97 2b3b
00000170: edca 14bc e9dc 183d 7ce3 903d 6198 b5bc
00000180: 4ae6 083b b525 363d a142 9d3c 2928 4b3c
00000190: 20f3 80bd 3189 4fbc a4fb 503c 1a65 3c3a
000001a0: 4ba3 d73c 7fd9 a5bc 6823 85bd e903 923d
000001b0: 66bc 883d 95ac 3ebd d214 993d 593a 52bd
000001c0: 6041 313b 4fd7 bb3c 1795 e63c 990b 3d3d
000001d0: 7d30 903d 81d9 c9bb 89a5 b5bd 28c8 903d
000001e0: 261a 273d f4d2 79bc 98e9 0e3d 959c 78bd
000001f0: 9d23 c5bc 1bd3 5e3d 6dff 193c 726b 54bd
00000200: 25ee fcbc ac63 0e3d 1c25 513d 0674 4f3d
00000210: fa05 a73c 8627 a0ba 64e5 593d 1e36 3a3d
00000220: 71d1 56bc 48ef fc3c 5aa0 42bd b6c9 8abc
00000230: 0dc7 3dbd 8932 113d 3b6b 813d b8b8 983c
00000240: 245b 2d3d 8d40 2e3d 1b89 703d 880b d43c
00000250: a053 c6bc 053e 823b 80a5 0e3d 5666 2abc
00000260: e034 e93c cd4c 793d 7bc9 4f3d 3e7c 00bd
00000270: 0b03 693c 74da 5b3b bbd5 313d 8d06 0e3d
00000280: 5811 9bbc 824a 9cbd 7a36 f3bc 82ad 4b3d
00000290: 3f08 ddbc cbcd 3ebc bb98 ddbb 60c6 00bd
000002a0: b3b5 55bd fa8c b43c 0972 9c3c bdb8 433d
000002b0: a2c0 b73b c38e 4abd 1298 fdbc de54 233c
000002c0: 2a77 3a3d 49d9 413d b6d7 eebc ab11 eabc
000002d0: 1bb2 45bd eaf8 443d 2c1c 853d 86ae 78bd
000002e0: d880 713d 86b0 0c3d 40d2 b7bd bdea 403d
000002f0: def2 45bb 37e1 9bbd 13e8 9abd 5fc8 57bd
00000300: 2456 153d 1cc7 c53c 07a7 95bc 2739 a33c
00000310: 135e 9fbc 2d6e 41bc be64 383c 47f3 163d
00000320: e1f7 21bd 14dd 85bd fb89 8ebc c25f 24bb
00000330: becc 3c3d 1eb7 7d3d c059 0e3d b084 c2b9
00000340: 61e0 d6bc 3c4f 98bc fa99 b4bc bfb7 29bd
00000350: 7574 4e3d cd0f 143d 4317 983d a552 3a3c
00000360: 3e61 49bd 5ec7 e43b bb8b babc 3e2e 193d
00000370: 5ef1 70bc 619d c13c c67e d8bb f925 673d
00000380: 1a38 893d 940f 2bbc 68c8 473d db0b e03b
00000390: ba90 56bb a4f8 abbc 3cf9 b6bc c226 c4bb
000003a0: 9632 0dbd 72a7 a8bc e8ac a73d 0902 2d3d
000003b0: 11e3 b53c 07ad 483d 97d8 9c3d dc43 28bc
000003c0: ae44 8b3c e48a 8f3d 91ca 883d fd93 a33b
000003d0: 2e0c 963d 0b49 91bc 8f3d 7d3d abbb 33bd
000003e0: abaa da3c cbc1 543d eff8 b9bb c71f 08bb
000003f0: 0984 833d c898 89bb b4cf 073d 8a3c 0e3d
-0.043057326 0.04562284 -0.057641212 -0.02687504 0.03801821 0.007868478 0.053545143 0.014881092
-0.036732987 -0.03814439 -0.020547364 -0.010155519 0.04719721 0.04836436 0.043988597 0.06382872
0.04733899 0.059023287 -0.040074453 0.027017264 0.054020986 -0.0005255716 0.042957652 -0.022239175
-0.028456973 0.060175948 -0.0110501805 0.0070690033 -0.0055233464 -0.03821249 0.09909029 0.009600995
0.045419674 0.009718594 0.018241536 -0.012314239 0.0025750867 0.0066966307 -0.06656279 0.04537183
-0.042578496 0.033259753 0.0061778445 -0.00083321804 -0.0026914899 -0.01407446 -0.049181998 0.015422888
0.03491677 0.018129734 -0.0101521015 -0.003644573 0.03351318 0.05169701 0.0050109318 -0.014644507
0.05797607 0.028846938 -0.044367965 -0.0386363 -0.06963478 -0.0456307 -0.03804778 0.041757744
-0.063562244 -0.038427122 0.05171544 0.012047174 -0.06499825 0.07346229 -0.016483871 0.046917558
-0.0486033 -0.040668726 0.036997452 0.0103220055 -0.027089367 0.023257438 -0.0150488345 -0.059580263
0.022483684 0.0076821847 -0.02739058 0.01062996 -0.04352747 -0.020441357 0.02597127 -0.008122394
-0.05933979 0.0017377634 0.019609278 0.0026182937 -0.009081584 0.03732005 0.07074639 -0.022167386
0.0020889216 0.044469554 0.01919681 0.012399712 -0.062963724 -0.012666986 0.012755308 0.0007186696
0.026322981 -0.020245312 -0.06500894 0.07129652 0.06676559 -0.046551306 0.07474674 -0.051325176
0.0027047023 0.022929816 0.028147263 0.04615364 0.070404984 -0.0061599617 -0.08869464 0.07069427
0.04079642 -0.015248049 0.03489074 -0.060696203 -0.024064833 0.054400545 0.009399277 -0.05186028
-0.030875275 0.034763023 0.05106078 0.050647758 0.020388592 -0.001221881 0.05319728 0.045461766
-0.013111458 0.030875817 -0.047516204 -0.016941886 -0.046332408 0.035448585 0.06319281 0.018642768
0.042323247 0.04254203 0.058724504 0.025884405 -0.024209797 0.0039746785 0.0348258 -0.010400375
0.028467596 0.06086426 0.050729256 -0.031368487 0.014221917 0.0033546956 0.04341672 0.034674216
-0.018929169 -0.07631399 -0.029689062 0.049726017 -0.026981471 -0.011645745 -0.0067625917 -0.031439185
-0.052175235 0.02203988 0.019097345 0.047783602 0.0056076804 -0.049452554 -0.030956302 0.009968964
0.0455238 0.04732636 -0.029155593 -0.028572878 -0.048265558 0.048088945 0.06499514 -0.060713314
0.058960766 0.034348033 -0.08975649 0.047098864 -0.0030204575 -0.07611316 -0.07563796 -0.052681323
0.036459103 0.024142794 -0.018268121 0.019924713 -0.019454038 -0.011806053 0.011254488 0.0368531
-0.039543036 -0.06536308 -0.017399779 -0.002508149 0.046093695 0.061942212 0.03475356 -0.00037101423
-0.02623004 -0.01859247 -0.022046078 -0.041435 0.05040403 0.03614788 0.07426312 0.011372243
-0.049165003 0.0069817742 -0.022771707 0.037397616 -0.014705984 0.023634614 -0.0066069094 0.056432698
0.06700154 -0.010440726 0.048775107 0.006837351 -0.0032740072 -0.020992585 -0.022335641 -0.0059860656
-0.03447207 -0.020587657 0.08187276 0.04223827 0.022203 0.048993137 0.07658499 -0.010270085
0.017000522 0.07008913 0.066792615 0.004992007 0.07326542 -0.017735025 0.061826285 -0.043880146
0.026692709 0.051942628 -0.005675427 -0.0020770894 0.06421668 -0.004199121 0.033157066 0.034725703

fc2.bias f4 [300]
00000000: 9942 753d 0b52 3ebc f9a0 d7bc 16f0 83bc
00000010: f9fc 8cbc 5acc 783d ede1 00bd a462 16bd
00000020: 3db1 283b 3ff7 013d 72c0 393d 5b1a 453d
00000030: 6e34 e93c 28a0 393b 89ae a13b 2981 0dbd
00000040: 3f22 edbb 2dab 16bd 8d54 883c 43f9 b03c
00000050: 8fe8 8a3c b238 4c3b aa67 24bd b4e1 26bd
00000060: 17af 9abb 7b0d 25bb e7ca 653d 30db 183d
00000070: e648 de3b 210b 453c 1415 433d 4963 17bc
00000080: 12ca f13b 59a0 e3bc 10a5 9dbc db4c dd3b
00000090: 3320 74bd b356 38bc 3622 0ebd 17b3 0ebd
000000a0: 1de6 66bd 25f2 303d f660 4f3d 5b81 09bd
000000b0: d4b3 0e3d 4141 843d 7298 41bd bac6 8ebc
000000c0: 6d8f 32bb d322 073d cbf6 b7ba cb11 8a3b
000000d0: ac24 4e3d c253 8fbc 112c b43c 6193 893d
000000e0: 0c6f 9939 4184 10bd 58ec 31bd ac7b 28bd
000000f0: a776 6abc 439d aa3c 5829 54bd 8932 4cbc
00000100: 1778 483d 4232 4fbb 61ee ebbb ab14 cf3a
00000110: e278 213d 25bf 5f3d 5b92 2f3d bc40 5a3d
00000120: 73ce 76bc 2dc4 613d b891 5cbd 38bd cc3c
00000130: b9c2 40bd cede 653d d9dc 463d f0f3 903d
00000140: 8d65 a6bc 24cf e5bc f285 3938 b8c9 0f3d
00000150: 4445 513d 0af4 743d 90d3 993c e778 f03c
00000160: eea9 b9bc b161 d2bc 05b1 5abd ce75 d7bc
00000170: 3f52 16bd 7f5a 233d 7af6 1cbd f752 0ebd
00000180: 3088 d2bc bd9d 71bd 3498 90bc 7b48 a7bc
00000190: 11cb 38bc e213 463d a72a 3d3d 7257 1e3d
000001a0: 5ecc 0fbd d94e 293d 9034 333d 6fff 16bd
000001b0: ad98 92bc 2145 12bd 51d0 e23c a6a3 49bc
000001c0: bdca 02bd f073 943c 3add 82bd b37f 4dbd
000001d0: 5e46 9a3c ebce 5cbd bd6d d7bc 5d06 ea3b
000001e0: d828 30bd 193e 05bd f997 a53c 64dd cfbc
000001f0: a78a 483d 95a3 4bbd 0e8b e8bc 3278 f23c
00000200: 91ae f13c 81a9 723a fe23 883d c422 4b3d
00000210: 6591 17bd 913e de3c 25c0 d9bc 48fc 07bc
00000220: dc7e e03b 1040 0e3c 3932 453d 7857 6c3c
00000230: de29 3fbc de8b 11bd c8d4 f7bc 9da1 8c3c
00000240: 7bbc aabc 3edc 11bd 0a9e 883c 11f7 f23b
00000250: 995f 3fbd 61cc 6c3c 5137 13bc cc83 4cbd
00000260: d7c1 1f3d 2cee e03c b1d1 9abc 8933 bfbc
00000270: 16ec 82bc ddf7 8f3c c19c ecbb 3575 e9bc
00000280: 82cc 2bbd 57af 39bd ca61 083c d896 b1bc
00000290: 38c6 4a3d 7938 f03c c966 3abd 1aae 1dbd
000002a0: ecc9 7c3d b47e a23b 2c60 0c3b f628 7fbc
000002b0: 07a3 c63c d8bd 643d fc6e 423d 5c12 0dbc
000002c0: 518d 6b3c ccbd 38bc 6b63 ba3c f1f2 ccbc
000002d0: d459 143d 2a72 c2bc ea2f 7a3d 45c1 bf3c
000002e0: 3993 ea3c a5a1 acba c967 4abd ad27 e43c
000002f0: c086 38bd 94f0 213d 7946 95bc 58a6 86bd
00000300: 1a24 26bd b9a3 263d 7524 a9bc 2c7d 8e3b
00000310: bcd4 923c 525a 27bd efd1 8b3c 1afc c6bc
00000320: fee4 203d 816e 1cbc 93c6 bd3a 6197 d13c
00000330: ed47 52bc 83cb 34bd ff63 bc37 ef02 9e3c
00000340: 4ca7 01bd 75d4 4abb df12 943d ab2b 3c3d
00000350: 6ba2 31bd bda2 3dbd 4983 083b 5a38 a53c
00000360: 6fab 813c 8fe7 04bd c5f0 15bc 2dae 283d
00000370: 5db9 abbc 5524 883d f916 c9bc 6436 fe3c
00000380: 0c4c f2bc e9d5 80bc 027e 213c 3096 553d
00000390: cdd9 123d b299 86bc d893 a83c 9c0a 093d
000003a0: 390f 0b3d 37ca 7cbd 14d1 d8bc 773d 06bd
000003b0: c670 b83c 5464 15bd 28e6 953c c7f0 243d
000003c0: 10da 1abc b98a f03c 8b21 afbc f56f 2dbd
000003d0: 5b82 7c3d 4052 dbbc 8fc6 863d 8167 2cbb
000003e0: 77d6 c23b 83f4 ec3c ed72 d83c c243 f63b
000003f0: cdb4 87bc 8b4b 1c3c 43ff 70bd 6bca 213d
0.059877966 -0.01161624 -0.026321875 -0.016105693 -0.01721047 0.06074176 -0.03146546 -0.036715165
0.0025740408 0.031729933 0.045349546 0.048120838 0.028467383 0.002832422 0.0049341363 -0.034547005
-0.0072367485 -0.03678434 0.01664188 0.021603232 0.016956596 0.0031161723 -0.040137924 -0.04074259
-0.0047205794 -0.0025185037 0.056101706 0.03731841 0.0067835925 0.012026579 0.047627524 -0.00923998
0.007378825 -0.02778642 -0.019243747 0.0067535467 -0.05960102 -0.011251139 -0.034700595 -0.034838762
-0.056371797 0.043199677 0.05062958 -0.03357063 0.034839466 0.06457759 -0.047264524 -0.017428745
-0.0027246133 0.032992195 -0.0014035342 0.004213547 0.05032794 -0.017495994 0.021993669 0.067175634
0.0002926517 -0.035282377 -0.043438286 -0.041133568 -0.0143105155 0.020826941 -0.05179724 -0.01246322
0.04894265 -0.003161565 -0.007200048 0.0015799006 0.039421923 0.05462565 0.042864185 0.05328439
-0.01506387 0.05511873 -0.053849906 0.02499257 -0.047060702 0.056120686 0.04855046 0.070777774
-0.020312095 -0.028052874 4.4232183e-05 0.035104483 0.051091447 0.059803046 0.018777639 0.029354526
-0.022664037 -0.025681349 -0.053391475 -0.02630129 -0.03669953 0.039881226 -0.038320996 -0.03474709
-0.025699705 -0.05898832 -0.017650701 -0.020420304 -0.011278884 0.048358805 0.046183255 0.038657613
-0.03510701 0.04133496 0.0437513 -0.036864694 -0.017895067 -0.035710458 0.027687224 -0.012307083
-0.031931628 0.01812169 -0.06389852 -0.05017061 0.018832382 -0.05390827 -0.026297444 0.007141872
-0.0430077 -0.032529924 0.020214068 -0.025374122 0.048960354 -0.04971655 -0.028386619 0.02959833
0.029502185 0.00092568254 0.0664749 0.049593702 -0.037003893 0.027129443 -0.02658088 -0.008299895
0.0068510603 0.008682266 0.0481436 0.014425151 -0.011667697 -0.03553378 -0.03025283 0.017166907
-0.020841828 -0.03561043 0.016676921 0.0074147065 -0.04672203 0.014453025 -0.008985356 -0.04993038
0.03900322 0.02745732 -0.018898817 -0.023340004 -0.015981715 0.017574245 -0.007220835 -0.028498271
-0.04194308 -0.045333233 0.008324096 -0.021678373 0.049505442 0.029323803 -0.04550818 -0.038496114
0.061716005 0.004958952 0.0021419628 -0.015573731 0.02424766 0.05584511 0.047469124 -0.008610334
0.014376954 -0.01127572 0.022752484 -0.025018187 0.03621848 -0.023736078 0.06108085 0.023407588
0.028634654 -0.0013170732 -0.049415383 0.02785095 -0.045050383 0.039536074 -0.01822208 -0.06574696
-0.040561773 0.04068348 -0.020647267 0.0043484177 0.017923705 -0.04085762 0.017067878 -0.024290133
0.039280884 -0.009547831 0.0014478735 0.025584878 -0.012834531 -0.044139396 2.245791e-05 0.019288508
-0.031653687 -0.0030949388 0.07230162 0.045940083 -0.043367784 -0.046297777 0.0020830205 0.020168472
0.015828816 -0.032447394 -0.009151642 0.041181732 -0.020962412 0.06647555 -0.024547087 0.031031795
-0.029577278 -0.015727 0.009856703 0.052145183 0.035852242 -0.01643071 0.02057831 0.033457384
0.033950064 -0.061716285 -0.026466884 -0.03277346 0.022514712 -0.036472633 0.018298224 0.040268686
-0.009451404 0.029363023 -0.0213783 -0.0423431 0.061647754 -0.026772618 0.06580841 -0.002630681
0.0059459764 0.028925186 0.026421988 0.0075154016 -0.016565705 0.009539495 -0.058837187 0.03949968

fc3.weight f4 [4, 300]
00000000: 00ec 60bb 2ef2 0bbb 3286 083d 4ef7 293c
00000010: 33d6 febc e6ca 2fbc d901 2e3d 2fff 72bd
00000020: 6672 42bd d97d c03c 211a 13bd 8db3 9b3d
00000030: ba54 0b3d 9c2e a4bc ea7c 8c3d 8436 513d
00000040: 9099 623d d0c7 533d 29f5 02bd 9d43 d1bd
00000050: cfa3 883c 3cc2 cdbd 91e2 c13d edd8 c93c
00000060: 57e3 1cbc c17d 543d 7a4e 143d 61b5 52bd
00000070: 3ce2 debc 98a6 83bb 915d 46bc fd21 d33c
00000080: dbb8 aebc 50a4 87bd 8e20 e3bb 3780 12bc
00000090: bfad 0bbc bedf a93b dfde a4bc 8722 e63c
000000a0: d980 c33d b930 aabc 3b69 9c3c bd78 c23c
000000b0: 5df1 643d 76ac a2bd b8ba 803d 61ae bc3d
000000c0: c132 9e3d ebc6 ce3d ff2d 4bbd c6d4 da3c
000000d0: e972 adbc 5d37 823d 0225 43bd 856b a53c
000000e0: 9353 4ebd fe7e 7c3d cc09 a43c 3f67 6f3c
000000f0: 92dd d5bd a2b4 0fbc 01df a73c 3aa2 d1bc
00000100: 3788 f83c 5936 b7bb 07a5 8b3d 97ae 853c
00000110: 2e42 26bd 9dd3 353d e26a 1abc 7fbe 5b3d
00000120: ab64 e23c 13f6 adbd 2014 a23d 1ffa 6abd
00000130: 23ce 683d 55a9 a2bd b3f5 1abd 5cf2 42bd
00000140: 285c ea3a 2b6c bd3c bb8d 923c d16e 2b3d
00000150: f83d 3fbb abe4 6bbc 3257 123d 32ca 93bd
00000160: 0f7c 97bc e98f 8b3d a6d9 99bc 22ad 3b3d
00000170: 2ac4 5e3c ffe7 08bd 50fb 33bd f07c 093d
00000180: 31f1 50bd b70e 6f3d b016 a7bd 6533 583d
00000190: ceb8 30bd 6818 8f3c 0504 53bb 3e44 cfbb
000001a0: c521 00bd 6f6f b7bb 0914 3e3d 5c7b 76bd
000001b0: 3cdd c73c 59d8 183d 504b 43bd bbfd 3e3d
000001c0: cde3 b13d c012 92bd 0eb7 383d 8f48 3f3d
000001d0: f7a7 92bc fb71 063d 94b9 aebc fd8b 22bc
000001e0: 8d74 4e3c 4f91 753d 5e7c 8dbd 4ff4 17bc
000001f0: e772 293c 1247 073d a9ec 5abc f586 ac3d
00000200: e5f0 e9bc 265a 663c 40f0 05bd fe5d 383d
00000210: 4f6a 653d 6e51 1abd 7e55 2d3d 9062 06bd
00000220: 15cd adbc bd36 123d 61e2 aa3d 19a7 543c
00000230: fcc7 8a3d e78c 893d 5589 833d 54b6 913d
00000240: e5c1 d93b 1fa2 09bd cdbe 463d 742b 34bc
00000250: e131 05bd 0844 553d e94d afbd 2c23 823c
00000260: ca5d 63bd 7c06 47bd 0032 60bd 341d 103c
00000270: d663 65bd 2d7c 6cbd 06d0 3fbd 30bd 813c
00000280: 2e9b dabd eebb 653d b97c 8cbd f81e 723d
00000290: f329 57bd de90 b3bd 3f21 9d3c 4c17 a9bd
000002a0: 8f7c a0bd 59fa 683d 73aa 36bd 1fbd f43a
000002b0: 6c8d 38bc ad2c 56bd 68ff 883c 1bed f13c
000002c0: 9470 c43c f18e bebc 3f06 24bd ce56 803d
000002d0: 3ff0 143d 7561 673d 7852 983d de02 41bd
000002e0: f4f5 17bd 73cf 163d de62 75bc e833 cd3c
000002f0: 379f b63d bc01 ae3c 5b2e c33d c1ab a7bc
00000300: 61c0 8a3d 3a0e 4a3d c06c c33b a88d acbd
00000310: aa1d 4e3c e260 6e3d 9dce df3c 3f4d 8e3d
00000320: 1e8b c33d 5aa2 9c3a 6251 4dbd 4c57 6c3d
00000330: 234f 5f3c 6a77 d23c 97cd 0a3d 7d73 0ebd
00000340: f351 e83c 50a3 e83c cf80 af3c a3a4 23bd
00000350: 2545 f0bc a944 223d a45a 163d 2610 af3d
00000360: 6985 92bc c75c 973d 3f2d ac3c a03c afbc
00000370: 2da4 013d c495 0dbd 6ba5 1abd 6d3d 813d
00000380: 46a7 903c 8e30 873d 4045 28bc 8b48 d03b
00000390: 584f 573d 2551 c9bd b585 00bc 956a 1bbd
000003a0: 7d9f 803d ae03 3f3c 0d95 18bb 3a8b a73d
000003b0: 7daf 933c f562 643d 7551 4cbc 6c17 2cbd
000003c0: ee5c 503d 52b8 41bd ea04 343d ab16 963c
000003d0: 3e86 e0bb eede 80bc 259a aebd 686f 043d
000003e0: 2057 a7bd 850b 93ba 75cd 103d 2052 02ba
000003f0: 1761 2c3d aee8 713d dd67 a13d 09e4 fdbc
-0.0034320354 -0.0021354067 0.033331104 0.010373903 -0.031107998 -0.010729527 0.04248223 -0.059325393
-0.04747238 0.023497509 -0.03591359 0.07602606 0.03401635 -0.020041756 0.06859763 0.05107738
0.05532223 0.051704228 -0.031972084 -0.10217974 0.016679673 -0.10046813 0.09467042 0.024639571
-0.009575686 0.05187774 0.036207654 -0.051442508 -0.027207486 -0.0040176623 -0.012107269 0.025773043
-0.02132838 -0.06623137 -0.006931371 -0.008941702 -0.008525311 0.005184143 -0.020125804 0.028092636
0.0954606 -0.020775186 0.019093147 0.023739213 0.055894244 -0.079430506 0.06285614 0.09212948
0.07724524 0.10096534 -0.049604412 0.026712786 -0.021172957 0.06358216 -0.047642715 0.02019287
-0.05037267 0.061644547 0.020024203 0.014612018 -0.10442652 -0.008771094 0.020492079 -0.025590051
0.03033839 -0.0055911955 0.06818586 0.016318602 -0.040590458 0.044391263 -0.009424897 0.053648468
0.027635893 -0.084942006 0.07913995 -0.05736744 0.056837212 -0.07942454 -0.037831973 -0.047594413
0.0017880248 0.023122868 0.017889848 0.04185373 -0.0029181223 -0.01439778 0.035727687 -0.072163
-0.018491773 0.06814558 -0.01878054 0.04581941 0.013596574 -0.033424374 -0.043940842 0.033566415
-0.051011268 0.058363643 -0.08158624 0.05278339 -0.043144993 0.017467692 -0.003219844 -0.006325274
-0.031282205 -0.0055980007 0.046405826 -0.06017624 0.024397485 0.0373157 -0.047679245 0.046628695
0.08686028 -0.071324825 0.04509645 0.046700057 -0.017902358 0.032823544 -0.021328725 -0.009921071
0.01260103 0.05995303 -0.06908487 -0.009274556 0.010342336 0.033026762 -0.013362088 0.084241785
-0.02855725 0.014059579 -0.032699823 0.045011513 0.056009587 -0.037675314 0.04231786 -0.03280884
-0.021215955 0.035696734 0.083439596 0.012979292 0.06776425 0.06716328 0.064226784 0.071148545
0.0066454285 -0.033601876 0.048521806 -0.010996688 -0.03251827 0.052066833 -0.08559782 0.015885912
-0.055509366 -0.04859017 -0.054735184 0.008796025 -0.056003414 -0.05773561 -0.046829246 0.015837282
-0.106741294 0.056087427 -0.068597265 0.059111565 -0.05253024 -0.087678656 0.019180892 -0.08256397
-0.07836258 0.056879375 -0.044596147 0.0018672085 -0.011264186 -0.0522887 0.01672335 0.029532006
0.023979463 -0.02326152 -0.04004502 0.06266557 0.03636193 0.056489427 0.07437605 -0.047121875
-0.037099794 0.036818933 -0.014977185 0.025049165 0.089170866 0.021241061 0.09530326 -0.02046764
0.067749746 0.049329974 0.0059638917 -0.08425456 0.012580315 0.058197863 0.0273202 0.06948327
0.09548019 0.001195024 -0.05012644 0.05770044 0.0136297075 0.025691707 0.033887472 -0.034778107
0.028359389 0.028398186 0.021423725 -0.03995193 -0.029329846 0.03961626 0.036707535 0.08548002
-0.01788588 0.07390743 0.021017669 -0.021391213 0.03165071 -0.034566656 -0.03775541 0.06310544
0.017657887 0.06601058 -0.010270417 0.006356304 0.052565902 -0.0982993 -0.007844378 -0.03794344
0.0628042 0.011658592 -0.00232822 0.08180852 0.018028015 0.055758435 -0.012470593 -0.042014524
0.050869875 -0.047294922 0.04395 0.018321356 -0.0068519404 -0.015731301 -0.085254945 0.032332808
-0.08170915 -0.0011218643 0.03535219 -0.0004971344 0.04208478 0.05905979 0.078811385 -0.030992525

fc3.bias f4 [4]
00000000: a46c 2fbd dc19 f53c 1927 c9bb 9cc7 0bbd
-0.042828217 0.029919557 -0.006138694 -0.03412591
